node {
  name: "deepq/observation"
  op: "Placeholder"
  attr {
    key: "dtype"
    value {
      type: DT_FLOAT
    }
  }
  attr {
    key: "shape"
    value {
      shape {
        dim {
          size: -1
        }
        dim {
          size: 84
        }
        dim {
          size: 84
        }
        dim {
          size: 4
        }
      }
    }
  }
}
node {
  name: "deepq/stochastic"
  op: "Placeholder"
  attr {
    key: "dtype"
    value {
      type: DT_BOOL
    }
  }
  attr {
    key: "shape"
    value {
      shape {
      }
    }
  }
}
node {
  name: "deepq/update_eps"
  op: "Placeholder"
  attr {
    key: "dtype"
    value {
      type: DT_FLOAT
    }
  }
  attr {
    key: "shape"
    value {
      shape {
      }
    }
  }
}
node {
  name: "deepq/eps/Initializer/Const"
  op: "Const"
  attr {
    key: "_class"
    value {
      list {
        s: "loc:@deepq/eps"
      }
    }
  }
  attr {
    key: "dtype"
    value {
      type: DT_FLOAT
    }
  }
  attr {
    key: "value"
    value {
      tensor {
        dtype: DT_FLOAT
        tensor_shape {
        }
        float_val: 0.0
      }
    }
  }
}
node {
  name: "deepq/eps"
  op: "VariableV2"
  attr {
    key: "_class"
    value {
      list {
        s: "loc:@deepq/eps"
      }
    }
  }
  attr {
    key: "container"
    value {
      s: ""
    }
  }
  attr {
    key: "dtype"
    value {
      type: DT_FLOAT
    }
  }
  attr {
    key: "shape"
    value {
      shape {
      }
    }
  }
  attr {
    key: "shared_name"
    value {
      s: ""
    }
  }
}
node {
  name: "deepq/eps/Assign"
  op: "Assign"
  input: "deepq/eps"
  input: "deepq/eps/Initializer/Const"
  attr {
    key: "T"
    value {
      type: DT_FLOAT
    }
  }
  attr {
    key: "_class"
    value {
      list {
        s: "loc:@deepq/eps"
      }
    }
  }
  attr {
    key: "use_locking"
    value {
      b: true
    }
  }
  attr {
    key: "validate_shape"
    value {
      b: true
    }
  }
}
node {
  name: "deepq/eps/read"
  op: "Identity"
  input: "deepq/eps"
  attr {
    key: "T"
    value {
      type: DT_FLOAT
    }
  }
  attr {
    key: "_class"
    value {
      list {
        s: "loc:@deepq/eps"
      }
    }
  }
}
node {
  name: "deepq/q_func/truediv/y"
  op: "Const"
  attr {
    key: "dtype"
    value {
      type: DT_FLOAT
    }
  }
  attr {
    key: "value"
    value {
      tensor {
        dtype: DT_FLOAT
        tensor_shape {
        }
        float_val: 255.0
      }
    }
  }
}
node {
  name: "deepq/q_func/truediv"
  op: "RealDiv"
  input: "deepq/observation"
  input: "deepq/q_func/truediv/y"
  attr {
    key: "T"
    value {
      type: DT_FLOAT
    }
  }
}
node {
  name: "deepq/q_func/convnet/Conv/weights/Initializer/random_uniform/shape"
  op: "Const"
  attr {
    key: "_class"
    value {
      list {
        s: "loc:@deepq/q_func/convnet/Conv/weights"
      }
    }
  }
  attr {
    key: "dtype"
    value {
      type: DT_INT32
    }
  }
  attr {
    key: "value"
    value {
      tensor {
        dtype: DT_INT32
        tensor_shape {
          dim {
            size: 4
          }
        }
        tensor_content: "\010\000\000\000\010\000\000\000\004\000\000\000 \000\000\000"
      }
    }
  }
}
node {
  name: "deepq/q_func/convnet/Conv/weights/Initializer/random_uniform/min"
  op: "Const"
  attr {
    key: "_class"
    value {
      list {
        s: "loc:@deepq/q_func/convnet/Conv/weights"
      }
    }
  }
  attr {
    key: "dtype"
    value {
      type: DT_FLOAT
    }
  }
  attr {
    key: "value"
    value {
      tensor {
        dtype: DT_FLOAT
        tensor_shape {
        }
        float_val: -0.05103103816509247
      }
    }
  }
}
node {
  name: "deepq/q_func/convnet/Conv/weights/Initializer/random_uniform/max"
  op: "Const"
  attr {
    key: "_class"
    value {
      list {
        s: "loc:@deepq/q_func/convnet/Conv/weights"
      }
    }
  }
  attr {
    key: "dtype"
    value {
      type: DT_FLOAT
    }
  }
  attr {
    key: "value"
    value {
      tensor {
        dtype: DT_FLOAT
        tensor_shape {
        }
        float_val: 0.05103103816509247
      }
    }
  }
}
node {
  name: "deepq/q_func/convnet/Conv/weights/Initializer/random_uniform/RandomUniform"
  op: "RandomUniform"
  input: "deepq/q_func/convnet/Conv/weights/Initializer/random_uniform/shape"
  attr {
    key: "T"
    value {
      type: DT_INT32
    }
  }
  attr {
    key: "_class"
    value {
      list {
        s: "loc:@deepq/q_func/convnet/Conv/weights"
      }
    }
  }
  attr {
    key: "dtype"
    value {
      type: DT_FLOAT
    }
  }
  attr {
    key: "seed"
    value {
      i: 0
    }
  }
  attr {
    key: "seed2"
    value {
      i: 0
    }
  }
}
node {
  name: "deepq/q_func/convnet/Conv/weights/Initializer/random_uniform/sub"
  op: "Sub"
  input: "deepq/q_func/convnet/Conv/weights/Initializer/random_uniform/max"
  input: "deepq/q_func/convnet/Conv/weights/Initializer/random_uniform/min"
  attr {
    key: "T"
    value {
      type: DT_FLOAT
    }
  }
  attr {
    key: "_class"
    value {
      list {
        s: "loc:@deepq/q_func/convnet/Conv/weights"
      }
    }
  }
}
node {
  name: "deepq/q_func/convnet/Conv/weights/Initializer/random_uniform/mul"
  op: "Mul"
  input: "deepq/q_func/convnet/Conv/weights/Initializer/random_uniform/RandomUniform"
  input: "deepq/q_func/convnet/Conv/weights/Initializer/random_uniform/sub"
  attr {
    key: "T"
    value {
      type: DT_FLOAT
    }
  }
  attr {
    key: "_class"
    value {
      list {
        s: "loc:@deepq/q_func/convnet/Conv/weights"
      }
    }
  }
}
node {
  name: "deepq/q_func/convnet/Conv/weights/Initializer/random_uniform"
  op: "Add"
  input: "deepq/q_func/convnet/Conv/weights/Initializer/random_uniform/mul"
  input: "deepq/q_func/convnet/Conv/weights/Initializer/random_uniform/min"
  attr {
    key: "T"
    value {
      type: DT_FLOAT
    }
  }
  attr {
    key: "_class"
    value {
      list {
        s: "loc:@deepq/q_func/convnet/Conv/weights"
      }
    }
  }
}
node {
  name: "deepq/q_func/convnet/Conv/weights"
  op: "VariableV2"
  attr {
    key: "_class"
    value {
      list {
        s: "loc:@deepq/q_func/convnet/Conv/weights"
      }
    }
  }
  attr {
    key: "container"
    value {
      s: ""
    }
  }
  attr {
    key: "dtype"
    value {
      type: DT_FLOAT
    }
  }
  attr {
    key: "shape"
    value {
      shape {
        dim {
          size: 8
        }
        dim {
          size: 8
        }
        dim {
          size: 4
        }
        dim {
          size: 32
        }
      }
    }
  }
  attr {
    key: "shared_name"
    value {
      s: ""
    }
  }
}
node {
  name: "deepq/q_func/convnet/Conv/weights/Assign"
  op: "Assign"
  input: "deepq/q_func/convnet/Conv/weights"
  input: "deepq/q_func/convnet/Conv/weights/Initializer/random_uniform"
  attr {
    key: "T"
    value {
      type: DT_FLOAT
    }
  }
  attr {
    key: "_class"
    value {
      list {
        s: "loc:@deepq/q_func/convnet/Conv/weights"
      }
    }
  }
  attr {
    key: "use_locking"
    value {
      b: true
    }
  }
  attr {
    key: "validate_shape"
    value {
      b: true
    }
  }
}
node {
  name: "deepq/q_func/convnet/Conv/weights/read"
  op: "Identity"
  input: "deepq/q_func/convnet/Conv/weights"
  attr {
    key: "T"
    value {
      type: DT_FLOAT
    }
  }
  attr {
    key: "_class"
    value {
      list {
        s: "loc:@deepq/q_func/convnet/Conv/weights"
      }
    }
  }
}
node {
  name: "deepq/q_func/convnet/Conv/biases/Initializer/zeros"
  op: "Const"
  attr {
    key: "_class"
    value {
      list {
        s: "loc:@deepq/q_func/convnet/Conv/biases"
      }
    }
  }
  attr {
    key: "dtype"
    value {
      type: DT_FLOAT
    }
  }
  attr {
    key: "value"
    value {
      tensor {
        dtype: DT_FLOAT
        tensor_shape {
          dim {
            size: 32
          }
        }
        float_val: 0.0
      }
    }
  }
}
node {
  name: "deepq/q_func/convnet/Conv/biases"
  op: "VariableV2"
  attr {
    key: "_class"
    value {
      list {
        s: "loc:@deepq/q_func/convnet/Conv/biases"
      }
    }
  }
  attr {
    key: "container"
    value {
      s: ""
    }
  }
  attr {
    key: "dtype"
    value {
      type: DT_FLOAT
    }
  }
  attr {
    key: "shape"
    value {
      shape {
        dim {
          size: 32
        }
      }
    }
  }
  attr {
    key: "shared_name"
    value {
      s: ""
    }
  }
}
node {
  name: "deepq/q_func/convnet/Conv/biases/Assign"
  op: "Assign"
  input: "deepq/q_func/convnet/Conv/biases"
  input: "deepq/q_func/convnet/Conv/biases/Initializer/zeros"
  attr {
    key: "T"
    value {
      type: DT_FLOAT
    }
  }
  attr {
    key: "_class"
    value {
      list {
        s: "loc:@deepq/q_func/convnet/Conv/biases"
      }
    }
  }
  attr {
    key: "use_locking"
    value {
      b: true
    }
  }
  attr {
    key: "validate_shape"
    value {
      b: true
    }
  }
}
node {
  name: "deepq/q_func/convnet/Conv/biases/read"
  op: "Identity"
  input: "deepq/q_func/convnet/Conv/biases"
  attr {
    key: "T"
    value {
      type: DT_FLOAT
    }
  }
  attr {
    key: "_class"
    value {
      list {
        s: "loc:@deepq/q_func/convnet/Conv/biases"
      }
    }
  }
}
node {
  name: "deepq/q_func/convnet/Conv/dilation_rate"
  op: "Const"
  attr {
    key: "dtype"
    value {
      type: DT_INT32
    }
  }
  attr {
    key: "value"
    value {
      tensor {
        dtype: DT_INT32
        tensor_shape {
          dim {
            size: 2
          }
        }
        tensor_content: "\001\000\000\000\001\000\000\000"
      }
    }
  }
}
node {
  name: "deepq/q_func/convnet/Conv/Conv2D"
  op: "Conv2D"
  input: "deepq/q_func/truediv"
  input: "deepq/q_func/convnet/Conv/weights/read"
  attr {
    key: "T"
    value {
      type: DT_FLOAT
    }
  }
  attr {
    key: "data_format"
    value {
      s: "NHWC"
    }
  }
  attr {
    key: "dilations"
    value {
      list {
        i: 1
        i: 1
        i: 1
        i: 1
      }
    }
  }
  attr {
    key: "padding"
    value {
      s: "SAME"
    }
  }
  attr {
    key: "strides"
    value {
      list {
        i: 1
        i: 4
        i: 4
        i: 1
      }
    }
  }
  attr {
    key: "use_cudnn_on_gpu"
    value {
      b: true
    }
  }
}
node {
  name: "deepq/q_func/convnet/Conv/BiasAdd"
  op: "BiasAdd"
  input: "deepq/q_func/convnet/Conv/Conv2D"
  input: "deepq/q_func/convnet/Conv/biases/read"
  attr {
    key: "T"
    value {
      type: DT_FLOAT
    }
  }
  attr {
    key: "data_format"
    value {
      s: "NHWC"
    }
  }
}
node {
  name: "deepq/q_func/convnet/Conv/Relu"
  op: "Relu"
  input: "deepq/q_func/convnet/Conv/BiasAdd"
  attr {
    key: "T"
    value {
      type: DT_FLOAT
    }
  }
}
node {
  name: "deepq/q_func/convnet/Conv_1/weights/Initializer/random_uniform/shape"
  op: "Const"
  attr {
    key: "_class"
    value {
      list {
        s: "loc:@deepq/q_func/convnet/Conv_1/weights"
      }
    }
  }
  attr {
    key: "dtype"
    value {
      type: DT_INT32
    }
  }
  attr {
    key: "value"
    value {
      tensor {
        dtype: DT_INT32
        tensor_shape {
          dim {
            size: 4
          }
        }
        tensor_content: "\004\000\000\000\004\000\000\000 \000\000\000@\000\000\000"
      }
    }
  }
}
node {
  name: "deepq/q_func/convnet/Conv_1/weights/Initializer/random_uniform/min"
  op: "Const"
  attr {
    key: "_class"
    value {
      list {
        s: "loc:@deepq/q_func/convnet/Conv_1/weights"
      }
    }
  }
  attr {
    key: "dtype"
    value {
      type: DT_FLOAT
    }
  }
  attr {
    key: "value"
    value {
      tensor {
        dtype: DT_FLOAT
        tensor_shape {
        }
        float_val: -0.0625
      }
    }
  }
}
node {
  name: "deepq/q_func/convnet/Conv_1/weights/Initializer/random_uniform/max"
  op: "Const"
  attr {
    key: "_class"
    value {
      list {
        s: "loc:@deepq/q_func/convnet/Conv_1/weights"
      }
    }
  }
  attr {
    key: "dtype"
    value {
      type: DT_FLOAT
    }
  }
  attr {
    key: "value"
    value {
      tensor {
        dtype: DT_FLOAT
        tensor_shape {
        }
        float_val: 0.0625
      }
    }
  }
}
node {
  name: "deepq/q_func/convnet/Conv_1/weights/Initializer/random_uniform/RandomUniform"
  op: "RandomUniform"
  input: "deepq/q_func/convnet/Conv_1/weights/Initializer/random_uniform/shape"
  attr {
    key: "T"
    value {
      type: DT_INT32
    }
  }
  attr {
    key: "_class"
    value {
      list {
        s: "loc:@deepq/q_func/convnet/Conv_1/weights"
      }
    }
  }
  attr {
    key: "dtype"
    value {
      type: DT_FLOAT
    }
  }
  attr {
    key: "seed"
    value {
      i: 0
    }
  }
  attr {
    key: "seed2"
    value {
      i: 0
    }
  }
}
node {
  name: "deepq/q_func/convnet/Conv_1/weights/Initializer/random_uniform/sub"
  op: "Sub"
  input: "deepq/q_func/convnet/Conv_1/weights/Initializer/random_uniform/max"
  input: "deepq/q_func/convnet/Conv_1/weights/Initializer/random_uniform/min"
  attr {
    key: "T"
    value {
      type: DT_FLOAT
    }
  }
  attr {
    key: "_class"
    value {
      list {
        s: "loc:@deepq/q_func/convnet/Conv_1/weights"
      }
    }
  }
}
node {
  name: "deepq/q_func/convnet/Conv_1/weights/Initializer/random_uniform/mul"
  op: "Mul"
  input: "deepq/q_func/convnet/Conv_1/weights/Initializer/random_uniform/RandomUniform"
  input: "deepq/q_func/convnet/Conv_1/weights/Initializer/random_uniform/sub"
  attr {
    key: "T"
    value {
      type: DT_FLOAT
    }
  }
  attr {
    key: "_class"
    value {
      list {
        s: "loc:@deepq/q_func/convnet/Conv_1/weights"
      }
    }
  }
}
node {
  name: "deepq/q_func/convnet/Conv_1/weights/Initializer/random_uniform"
  op: "Add"
  input: "deepq/q_func/convnet/Conv_1/weights/Initializer/random_uniform/mul"
  input: "deepq/q_func/convnet/Conv_1/weights/Initializer/random_uniform/min"
  attr {
    key: "T"
    value {
      type: DT_FLOAT
    }
  }
  attr {
    key: "_class"
    value {
      list {
        s: "loc:@deepq/q_func/convnet/Conv_1/weights"
      }
    }
  }
}
node {
  name: "deepq/q_func/convnet/Conv_1/weights"
  op: "VariableV2"
  attr {
    key: "_class"
    value {
      list {
        s: "loc:@deepq/q_func/convnet/Conv_1/weights"
      }
    }
  }
  attr {
    key: "container"
    value {
      s: ""
    }
  }
  attr {
    key: "dtype"
    value {
      type: DT_FLOAT
    }
  }
  attr {
    key: "shape"
    value {
      shape {
        dim {
          size: 4
        }
        dim {
          size: 4
        }
        dim {
          size: 32
        }
        dim {
          size: 64
        }
      }
    }
  }
  attr {
    key: "shared_name"
    value {
      s: ""
    }
  }
}
node {
  name: "deepq/q_func/convnet/Conv_1/weights/Assign"
  op: "Assign"
  input: "deepq/q_func/convnet/Conv_1/weights"
  input: "deepq/q_func/convnet/Conv_1/weights/Initializer/random_uniform"
  attr {
    key: "T"
    value {
      type: DT_FLOAT
    }
  }
  attr {
    key: "_class"
    value {
      list {
        s: "loc:@deepq/q_func/convnet/Conv_1/weights"
      }
    }
  }
  attr {
    key: "use_locking"
    value {
      b: true
    }
  }
  attr {
    key: "validate_shape"
    value {
      b: true
    }
  }
}
node {
  name: "deepq/q_func/convnet/Conv_1/weights/read"
  op: "Identity"
  input: "deepq/q_func/convnet/Conv_1/weights"
  attr {
    key: "T"
    value {
      type: DT_FLOAT
    }
  }
  attr {
    key: "_class"
    value {
      list {
        s: "loc:@deepq/q_func/convnet/Conv_1/weights"
      }
    }
  }
}
node {
  name: "deepq/q_func/convnet/Conv_1/biases/Initializer/zeros"
  op: "Const"
  attr {
    key: "_class"
    value {
      list {
        s: "loc:@deepq/q_func/convnet/Conv_1/biases"
      }
    }
  }
  attr {
    key: "dtype"
    value {
      type: DT_FLOAT
    }
  }
  attr {
    key: "value"
    value {
      tensor {
        dtype: DT_FLOAT
        tensor_shape {
          dim {
            size: 64
          }
        }
        float_val: 0.0
      }
    }
  }
}
node {
  name: "deepq/q_func/convnet/Conv_1/biases"
  op: "VariableV2"
  attr {
    key: "_class"
    value {
      list {
        s: "loc:@deepq/q_func/convnet/Conv_1/biases"
      }
    }
  }
  attr {
    key: "container"
    value {
      s: ""
    }
  }
  attr {
    key: "dtype"
    value {
      type: DT_FLOAT
    }
  }
  attr {
    key: "shape"
    value {
      shape {
        dim {
          size: 64
        }
      }
    }
  }
  attr {
    key: "shared_name"
    value {
      s: ""
    }
  }
}
node {
  name: "deepq/q_func/convnet/Conv_1/biases/Assign"
  op: "Assign"
  input: "deepq/q_func/convnet/Conv_1/biases"
  input: "deepq/q_func/convnet/Conv_1/biases/Initializer/zeros"
  attr {
    key: "T"
    value {
      type: DT_FLOAT
    }
  }
  attr {
    key: "_class"
    value {
      list {
        s: "loc:@deepq/q_func/convnet/Conv_1/biases"
      }
    }
  }
  attr {
    key: "use_locking"
    value {
      b: true
    }
  }
  attr {
    key: "validate_shape"
    value {
      b: true
    }
  }
}
node {
  name: "deepq/q_func/convnet/Conv_1/biases/read"
  op: "Identity"
  input: "deepq/q_func/convnet/Conv_1/biases"
  attr {
    key: "T"
    value {
      type: DT_FLOAT
    }
  }
  attr {
    key: "_class"
    value {
      list {
        s: "loc:@deepq/q_func/convnet/Conv_1/biases"
      }
    }
  }
}
node {
  name: "deepq/q_func/convnet/Conv_1/dilation_rate"
  op: "Const"
  attr {
    key: "dtype"
    value {
      type: DT_INT32
    }
  }
  attr {
    key: "value"
    value {
      tensor {
        dtype: DT_INT32
        tensor_shape {
          dim {
            size: 2
          }
        }
        tensor_content: "\001\000\000\000\001\000\000\000"
      }
    }
  }
}
node {
  name: "deepq/q_func/convnet/Conv_1/Conv2D"
  op: "Conv2D"
  input: "deepq/q_func/convnet/Conv/Relu"
  input: "deepq/q_func/convnet/Conv_1/weights/read"
  attr {
    key: "T"
    value {
      type: DT_FLOAT
    }
  }
  attr {
    key: "data_format"
    value {
      s: "NHWC"
    }
  }
  attr {
    key: "dilations"
    value {
      list {
        i: 1
        i: 1
        i: 1
        i: 1
      }
    }
  }
  attr {
    key: "padding"
    value {
      s: "SAME"
    }
  }
  attr {
    key: "strides"
    value {
      list {
        i: 1
        i: 2
        i: 2
        i: 1
      }
    }
  }
  attr {
    key: "use_cudnn_on_gpu"
    value {
      b: true
    }
  }
}
node {
  name: "deepq/q_func/convnet/Conv_1/BiasAdd"
  op: "BiasAdd"
  input: "deepq/q_func/convnet/Conv_1/Conv2D"
  input: "deepq/q_func/convnet/Conv_1/biases/read"
  attr {
    key: "T"
    value {
      type: DT_FLOAT
    }
  }
  attr {
    key: "data_format"
    value {
      s: "NHWC"
    }
  }
}
node {
  name: "deepq/q_func/convnet/Conv_1/Relu"
  op: "Relu"
  input: "deepq/q_func/convnet/Conv_1/BiasAdd"
  attr {
    key: "T"
    value {
      type: DT_FLOAT
    }
  }
}
node {
  name: "deepq/q_func/convnet/Conv_2/weights/Initializer/random_uniform/shape"
  op: "Const"
  attr {
    key: "_class"
    value {
      list {
        s: "loc:@deepq/q_func/convnet/Conv_2/weights"
      }
    }
  }
  attr {
    key: "dtype"
    value {
      type: DT_INT32
    }
  }
  attr {
    key: "value"
    value {
      tensor {
        dtype: DT_INT32
        tensor_shape {
          dim {
            size: 4
          }
        }
        tensor_content: "\003\000\000\000\003\000\000\000@\000\000\000@\000\000\000"
      }
    }
  }
}
node {
  name: "deepq/q_func/convnet/Conv_2/weights/Initializer/random_uniform/min"
  op: "Const"
  attr {
    key: "_class"
    value {
      list {
        s: "loc:@deepq/q_func/convnet/Conv_2/weights"
      }
    }
  }
  attr {
    key: "dtype"
    value {
      type: DT_FLOAT
    }
  }
  attr {
    key: "value"
    value {
      tensor {
        dtype: DT_FLOAT
        tensor_shape {
        }
        float_val: -0.07216878235340118
      }
    }
  }
}
node {
  name: "deepq/q_func/convnet/Conv_2/weights/Initializer/random_uniform/max"
  op: "Const"
  attr {
    key: "_class"
    value {
      list {
        s: "loc:@deepq/q_func/convnet/Conv_2/weights"
      }
    }
  }
  attr {
    key: "dtype"
    value {
      type: DT_FLOAT
    }
  }
  attr {
    key: "value"
    value {
      tensor {
        dtype: DT_FLOAT
        tensor_shape {
        }
        float_val: 0.07216878235340118
      }
    }
  }
}
node {
  name: "deepq/q_func/convnet/Conv_2/weights/Initializer/random_uniform/RandomUniform"
  op: "RandomUniform"
  input: "deepq/q_func/convnet/Conv_2/weights/Initializer/random_uniform/shape"
  attr {
    key: "T"
    value {
      type: DT_INT32
    }
  }
  attr {
    key: "_class"
    value {
      list {
        s: "loc:@deepq/q_func/convnet/Conv_2/weights"
      }
    }
  }
  attr {
    key: "dtype"
    value {
      type: DT_FLOAT
    }
  }
  attr {
    key: "seed"
    value {
      i: 0
    }
  }
  attr {
    key: "seed2"
    value {
      i: 0
    }
  }
}
node {
  name: "deepq/q_func/convnet/Conv_2/weights/Initializer/random_uniform/sub"
  op: "Sub"
  input: "deepq/q_func/convnet/Conv_2/weights/Initializer/random_uniform/max"
  input: "deepq/q_func/convnet/Conv_2/weights/Initializer/random_uniform/min"
  attr {
    key: "T"
    value {
      type: DT_FLOAT
    }
  }
  attr {
    key: "_class"
    value {
      list {
        s: "loc:@deepq/q_func/convnet/Conv_2/weights"
      }
    }
  }
}
node {
  name: "deepq/q_func/convnet/Conv_2/weights/Initializer/random_uniform/mul"
  op: "Mul"
  input: "deepq/q_func/convnet/Conv_2/weights/Initializer/random_uniform/RandomUniform"
  input: "deepq/q_func/convnet/Conv_2/weights/Initializer/random_uniform/sub"
  attr {
    key: "T"
    value {
      type: DT_FLOAT
    }
  }
  attr {
    key: "_class"
    value {
      list {
        s: "loc:@deepq/q_func/convnet/Conv_2/weights"
      }
    }
  }
}
node {
  name: "deepq/q_func/convnet/Conv_2/weights/Initializer/random_uniform"
  op: "Add"
  input: "deepq/q_func/convnet/Conv_2/weights/Initializer/random_uniform/mul"
  input: "deepq/q_func/convnet/Conv_2/weights/Initializer/random_uniform/min"
  attr {
    key: "T"
    value {
      type: DT_FLOAT
    }
  }
  attr {
    key: "_class"
    value {
      list {
        s: "loc:@deepq/q_func/convnet/Conv_2/weights"
      }
    }
  }
}
node {
  name: "deepq/q_func/convnet/Conv_2/weights"
  op: "VariableV2"
  attr {
    key: "_class"
    value {
      list {
        s: "loc:@deepq/q_func/convnet/Conv_2/weights"
      }
    }
  }
  attr {
    key: "container"
    value {
      s: ""
    }
  }
  attr {
    key: "dtype"
    value {
      type: DT_FLOAT
    }
  }
  attr {
    key: "shape"
    value {
      shape {
        dim {
          size: 3
        }
        dim {
          size: 3
        }
        dim {
          size: 64
        }
        dim {
          size: 64
        }
      }
    }
  }
  attr {
    key: "shared_name"
    value {
      s: ""
    }
  }
}
node {
  name: "deepq/q_func/convnet/Conv_2/weights/Assign"
  op: "Assign"
  input: "deepq/q_func/convnet/Conv_2/weights"
  input: "deepq/q_func/convnet/Conv_2/weights/Initializer/random_uniform"
  attr {
    key: "T"
    value {
      type: DT_FLOAT
    }
  }
  attr {
    key: "_class"
    value {
      list {
        s: "loc:@deepq/q_func/convnet/Conv_2/weights"
      }
    }
  }
  attr {
    key: "use_locking"
    value {
      b: true
    }
  }
  attr {
    key: "validate_shape"
    value {
      b: true
    }
  }
}
node {
  name: "deepq/q_func/convnet/Conv_2/weights/read"
  op: "Identity"
  input: "deepq/q_func/convnet/Conv_2/weights"
  attr {
    key: "T"
    value {
      type: DT_FLOAT
    }
  }
  attr {
    key: "_class"
    value {
      list {
        s: "loc:@deepq/q_func/convnet/Conv_2/weights"
      }
    }
  }
}
node {
  name: "deepq/q_func/convnet/Conv_2/biases/Initializer/zeros"
  op: "Const"
  attr {
    key: "_class"
    value {
      list {
        s: "loc:@deepq/q_func/convnet/Conv_2/biases"
      }
    }
  }
  attr {
    key: "dtype"
    value {
      type: DT_FLOAT
    }
  }
  attr {
    key: "value"
    value {
      tensor {
        dtype: DT_FLOAT
        tensor_shape {
          dim {
            size: 64
          }
        }
        float_val: 0.0
      }
    }
  }
}
node {
  name: "deepq/q_func/convnet/Conv_2/biases"
  op: "VariableV2"
  attr {
    key: "_class"
    value {
      list {
        s: "loc:@deepq/q_func/convnet/Conv_2/biases"
      }
    }
  }
  attr {
    key: "container"
    value {
      s: ""
    }
  }
  attr {
    key: "dtype"
    value {
      type: DT_FLOAT
    }
  }
  attr {
    key: "shape"
    value {
      shape {
        dim {
          size: 64
        }
      }
    }
  }
  attr {
    key: "shared_name"
    value {
      s: ""
    }
  }
}
node {
  name: "deepq/q_func/convnet/Conv_2/biases/Assign"
  op: "Assign"
  input: "deepq/q_func/convnet/Conv_2/biases"
  input: "deepq/q_func/convnet/Conv_2/biases/Initializer/zeros"
  attr {
    key: "T"
    value {
      type: DT_FLOAT
    }
  }
  attr {
    key: "_class"
    value {
      list {
        s: "loc:@deepq/q_func/convnet/Conv_2/biases"
      }
    }
  }
  attr {
    key: "use_locking"
    value {
      b: true
    }
  }
  attr {
    key: "validate_shape"
    value {
      b: true
    }
  }
}
node {
  name: "deepq/q_func/convnet/Conv_2/biases/read"
  op: "Identity"
  input: "deepq/q_func/convnet/Conv_2/biases"
  attr {
    key: "T"
    value {
      type: DT_FLOAT
    }
  }
  attr {
    key: "_class"
    value {
      list {
        s: "loc:@deepq/q_func/convnet/Conv_2/biases"
      }
    }
  }
}
node {
  name: "deepq/q_func/convnet/Conv_2/dilation_rate"
  op: "Const"
  attr {
    key: "dtype"
    value {
      type: DT_INT32
    }
  }
  attr {
    key: "value"
    value {
      tensor {
        dtype: DT_INT32
        tensor_shape {
          dim {
            size: 2
          }
        }
        tensor_content: "\001\000\000\000\001\000\000\000"
      }
    }
  }
}
node {
  name: "deepq/q_func/convnet/Conv_2/Conv2D"
  op: "Conv2D"
  input: "deepq/q_func/convnet/Conv_1/Relu"
  input: "deepq/q_func/convnet/Conv_2/weights/read"
  attr {
    key: "T"
    value {
      type: DT_FLOAT
    }
  }
  attr {
    key: "data_format"
    value {
      s: "NHWC"
    }
  }
  attr {
    key: "dilations"
    value {
      list {
        i: 1
        i: 1
        i: 1
        i: 1
      }
    }
  }
  attr {
    key: "padding"
    value {
      s: "SAME"
    }
  }
  attr {
    key: "strides"
    value {
      list {
        i: 1
        i: 1
        i: 1
        i: 1
      }
    }
  }
  attr {
    key: "use_cudnn_on_gpu"
    value {
      b: true
    }
  }
}
node {
  name: "deepq/q_func/convnet/Conv_2/BiasAdd"
  op: "BiasAdd"
  input: "deepq/q_func/convnet/Conv_2/Conv2D"
  input: "deepq/q_func/convnet/Conv_2/biases/read"
  attr {
    key: "T"
    value {
      type: DT_FLOAT
    }
  }
  attr {
    key: "data_format"
    value {
      s: "NHWC"
    }
  }
}
node {
  name: "deepq/q_func/convnet/Conv_2/Relu"
  op: "Relu"
  input: "deepq/q_func/convnet/Conv_2/BiasAdd"
  attr {
    key: "T"
    value {
      type: DT_FLOAT
    }
  }
}
node {
  name: "deepq/q_func/Flatten/flatten/Shape"
  op: "Shape"
  input: "deepq/q_func/convnet/Conv_2/Relu"
  attr {
    key: "T"
    value {
      type: DT_FLOAT
    }
  }
  attr {
    key: "out_type"
    value {
      type: DT_INT32
    }
  }
}
node {
  name: "deepq/q_func/Flatten/flatten/strided_slice/stack"
  op: "Const"
  attr {
    key: "dtype"
    value {
      type: DT_INT32
    }
  }
  attr {
    key: "value"
    value {
      tensor {
        dtype: DT_INT32
        tensor_shape {
          dim {
            size: 1
          }
        }
        int_val: 0
      }
    }
  }
}
node {
  name: "deepq/q_func/Flatten/flatten/strided_slice/stack_1"
  op: "Const"
  attr {
    key: "dtype"
    value {
      type: DT_INT32
    }
  }
  attr {
    key: "value"
    value {
      tensor {
        dtype: DT_INT32
        tensor_shape {
          dim {
            size: 1
          }
        }
        int_val: 1
      }
    }
  }
}
node {
  name: "deepq/q_func/Flatten/flatten/strided_slice/stack_2"
  op: "Const"
  attr {
    key: "dtype"
    value {
      type: DT_INT32
    }
  }
  attr {
    key: "value"
    value {
      tensor {
        dtype: DT_INT32
        tensor_shape {
          dim {
            size: 1
          }
        }
        int_val: 1
      }
    }
  }
}
node {
  name: "deepq/q_func/Flatten/flatten/strided_slice"
  op: "StridedSlice"
  input: "deepq/q_func/Flatten/flatten/Shape"
  input: "deepq/q_func/Flatten/flatten/strided_slice/stack"
  input: "deepq/q_func/Flatten/flatten/strided_slice/stack_1"
  input: "deepq/q_func/Flatten/flatten/strided_slice/stack_2"
  attr {
    key: "Index"
    value {
      type: DT_INT32
    }
  }
  attr {
    key: "T"
    value {
      type: DT_INT32
    }
  }
  attr {
    key: "begin_mask"
    value {
      i: 0
    }
  }
  attr {
    key: "ellipsis_mask"
    value {
      i: 0
    }
  }
  attr {
    key: "end_mask"
    value {
      i: 0
    }
  }
  attr {
    key: "new_axis_mask"
    value {
      i: 0
    }
  }
  attr {
    key: "shrink_axis_mask"
    value {
      i: 1
    }
  }
}
node {
  name: "deepq/q_func/Flatten/flatten/Reshape/shape/1"
  op: "Const"
  attr {
    key: "dtype"
    value {
      type: DT_INT32
    }
  }
  attr {
    key: "value"
    value {
      tensor {
        dtype: DT_INT32
        tensor_shape {
        }
        int_val: -1
      }
    }
  }
}
node {
  name: "deepq/q_func/Flatten/flatten/Reshape/shape"
  op: "Pack"
  input: "deepq/q_func/Flatten/flatten/strided_slice"
  input: "deepq/q_func/Flatten/flatten/Reshape/shape/1"
  attr {
    key: "N"
    value {
      i: 2
    }
  }
  attr {
    key: "T"
    value {
      type: DT_INT32
    }
  }
  attr {
    key: "axis"
    value {
      i: 0
    }
  }
}
node {
  name: "deepq/q_func/Flatten/flatten/Reshape"
  op: "Reshape"
  input: "deepq/q_func/convnet/Conv_2/Relu"
  input: "deepq/q_func/Flatten/flatten/Reshape/shape"
  attr {
    key: "T"
    value {
      type: DT_FLOAT
    }
  }
  attr {
    key: "Tshape"
    value {
      type: DT_INT32
    }
  }
}
node {
  name: "deepq/q_func/action_value/fully_connected/weights/Initializer/random_uniform/shape"
  op: "Const"
  attr {
    key: "_class"
    value {
      list {
        s: "loc:@deepq/q_func/action_value/fully_connected/weights"
      }
    }
  }
  attr {
    key: "dtype"
    value {
      type: DT_INT32
    }
  }
  attr {
    key: "value"
    value {
      tensor {
        dtype: DT_INT32
        tensor_shape {
          dim {
            size: 2
          }
        }
        tensor_content: "@\036\000\000\000\001\000\000"
      }
    }
  }
}
node {
  name: "deepq/q_func/action_value/fully_connected/weights/Initializer/random_uniform/min"
  op: "Const"
  attr {
    key: "_class"
    value {
      list {
        s: "loc:@deepq/q_func/action_value/fully_connected/weights"
      }
    }
  }
  attr {
    key: "dtype"
    value {
      type: DT_FLOAT
    }
  }
  attr {
    key: "value"
    value {
      tensor {
        dtype: DT_FLOAT
        tensor_shape {
        }
        float_val: -0.027386127039790154
      }
    }
  }
}
node {
  name: "deepq/q_func/action_value/fully_connected/weights/Initializer/random_uniform/max"
  op: "Const"
  attr {
    key: "_class"
    value {
      list {
        s: "loc:@deepq/q_func/action_value/fully_connected/weights"
      }
    }
  }
  attr {
    key: "dtype"
    value {
      type: DT_FLOAT
    }
  }
  attr {
    key: "value"
    value {
      tensor {
        dtype: DT_FLOAT
        tensor_shape {
        }
        float_val: 0.027386127039790154
      }
    }
  }
}
node {
  name: "deepq/q_func/action_value/fully_connected/weights/Initializer/random_uniform/RandomUniform"
  op: "RandomUniform"
  input: "deepq/q_func/action_value/fully_connected/weights/Initializer/random_uniform/shape"
  attr {
    key: "T"
    value {
      type: DT_INT32
    }
  }
  attr {
    key: "_class"
    value {
      list {
        s: "loc:@deepq/q_func/action_value/fully_connected/weights"
      }
    }
  }
  attr {
    key: "dtype"
    value {
      type: DT_FLOAT
    }
  }
  attr {
    key: "seed"
    value {
      i: 0
    }
  }
  attr {
    key: "seed2"
    value {
      i: 0
    }
  }
}
node {
  name: "deepq/q_func/action_value/fully_connected/weights/Initializer/random_uniform/sub"
  op: "Sub"
  input: "deepq/q_func/action_value/fully_connected/weights/Initializer/random_uniform/max"
  input: "deepq/q_func/action_value/fully_connected/weights/Initializer/random_uniform/min"
  attr {
    key: "T"
    value {
      type: DT_FLOAT
    }
  }
  attr {
    key: "_class"
    value {
      list {
        s: "loc:@deepq/q_func/action_value/fully_connected/weights"
      }
    }
  }
}
node {
  name: "deepq/q_func/action_value/fully_connected/weights/Initializer/random_uniform/mul"
  op: "Mul"
  input: "deepq/q_func/action_value/fully_connected/weights/Initializer/random_uniform/RandomUniform"
  input: "deepq/q_func/action_value/fully_connected/weights/Initializer/random_uniform/sub"
  attr {
    key: "T"
    value {
      type: DT_FLOAT
    }
  }
  attr {
    key: "_class"
    value {
      list {
        s: "loc:@deepq/q_func/action_value/fully_connected/weights"
      }
    }
  }
}
node {
  name: "deepq/q_func/action_value/fully_connected/weights/Initializer/random_uniform"
  op: "Add"
  input: "deepq/q_func/action_value/fully_connected/weights/Initializer/random_uniform/mul"
  input: "deepq/q_func/action_value/fully_connected/weights/Initializer/random_uniform/min"
  attr {
    key: "T"
    value {
      type: DT_FLOAT
    }
  }
  attr {
    key: "_class"
    value {
      list {
        s: "loc:@deepq/q_func/action_value/fully_connected/weights"
      }
    }
  }
}
node {
  name: "deepq/q_func/action_value/fully_connected/weights"
  op: "VariableV2"
  attr {
    key: "_class"
    value {
      list {
        s: "loc:@deepq/q_func/action_value/fully_connected/weights"
      }
    }
  }
  attr {
    key: "container"
    value {
      s: ""
    }
  }
  attr {
    key: "dtype"
    value {
      type: DT_FLOAT
    }
  }
  attr {
    key: "shape"
    value {
      shape {
        dim {
          size: 7744
        }
        dim {
          size: 256
        }
      }
    }
  }
  attr {
    key: "shared_name"
    value {
      s: ""
    }
  }
}
node {
  name: "deepq/q_func/action_value/fully_connected/weights/Assign"
  op: "Assign"
  input: "deepq/q_func/action_value/fully_connected/weights"
  input: "deepq/q_func/action_value/fully_connected/weights/Initializer/random_uniform"
  attr {
    key: "T"
    value {
      type: DT_FLOAT
    }
  }
  attr {
    key: "_class"
    value {
      list {
        s: "loc:@deepq/q_func/action_value/fully_connected/weights"
      }
    }
  }
  attr {
    key: "use_locking"
    value {
      b: true
    }
  }
  attr {
    key: "validate_shape"
    value {
      b: true
    }
  }
}
node {
  name: "deepq/q_func/action_value/fully_connected/weights/read"
  op: "Identity"
  input: "deepq/q_func/action_value/fully_connected/weights"
  attr {
    key: "T"
    value {
      type: DT_FLOAT
    }
  }
  attr {
    key: "_class"
    value {
      list {
        s: "loc:@deepq/q_func/action_value/fully_connected/weights"
      }
    }
  }
}
node {
  name: "deepq/q_func/action_value/fully_connected/biases/Initializer/zeros"
  op: "Const"
  attr {
    key: "_class"
    value {
      list {
        s: "loc:@deepq/q_func/action_value/fully_connected/biases"
      }
    }
  }
  attr {
    key: "dtype"
    value {
      type: DT_FLOAT
    }
  }
  attr {
    key: "value"
    value {
      tensor {
        dtype: DT_FLOAT
        tensor_shape {
          dim {
            size: 256
          }
        }
        float_val: 0.0
      }
    }
  }
}
node {
  name: "deepq/q_func/action_value/fully_connected/biases"
  op: "VariableV2"
  attr {
    key: "_class"
    value {
      list {
        s: "loc:@deepq/q_func/action_value/fully_connected/biases"
      }
    }
  }
  attr {
    key: "container"
    value {
      s: ""
    }
  }
  attr {
    key: "dtype"
    value {
      type: DT_FLOAT
    }
  }
  attr {
    key: "shape"
    value {
      shape {
        dim {
          size: 256
        }
      }
    }
  }
  attr {
    key: "shared_name"
    value {
      s: ""
    }
  }
}
node {
  name: "deepq/q_func/action_value/fully_connected/biases/Assign"
  op: "Assign"
  input: "deepq/q_func/action_value/fully_connected/biases"
  input: "deepq/q_func/action_value/fully_connected/biases/Initializer/zeros"
  attr {
    key: "T"
    value {
      type: DT_FLOAT
    }
  }
  attr {
    key: "_class"
    value {
      list {
        s: "loc:@deepq/q_func/action_value/fully_connected/biases"
      }
    }
  }
  attr {
    key: "use_locking"
    value {
      b: true
    }
  }
  attr {
    key: "validate_shape"
    value {
      b: true
    }
  }
}
node {
  name: "deepq/q_func/action_value/fully_connected/biases/read"
  op: "Identity"
  input: "deepq/q_func/action_value/fully_connected/biases"
  attr {
    key: "T"
    value {
      type: DT_FLOAT
    }
  }
  attr {
    key: "_class"
    value {
      list {
        s: "loc:@deepq/q_func/action_value/fully_connected/biases"
      }
    }
  }
}
node {
  name: "deepq/q_func/action_value/fully_connected/MatMul"
  op: "MatMul"
  input: "deepq/q_func/Flatten/flatten/Reshape"
  input: "deepq/q_func/action_value/fully_connected/weights/read"
  attr {
    key: "T"
    value {
      type: DT_FLOAT
    }
  }
  attr {
    key: "transpose_a"
    value {
      b: false
    }
  }
  attr {
    key: "transpose_b"
    value {
      b: false
    }
  }
}
node {
  name: "deepq/q_func/action_value/fully_connected/BiasAdd"
  op: "BiasAdd"
  input: "deepq/q_func/action_value/fully_connected/MatMul"
  input: "deepq/q_func/action_value/fully_connected/biases/read"
  attr {
    key: "T"
    value {
      type: DT_FLOAT
    }
  }
  attr {
    key: "data_format"
    value {
      s: "NHWC"
    }
  }
}
node {
  name: "deepq/q_func/action_value/Relu"
  op: "Relu"
  input: "deepq/q_func/action_value/fully_connected/BiasAdd"
  attr {
    key: "T"
    value {
      type: DT_FLOAT
    }
  }
}
node {
  name: "deepq/q_func/action_value/fully_connected_1/weights/Initializer/random_uniform/shape"
  op: "Const"
  attr {
    key: "_class"
    value {
      list {
        s: "loc:@deepq/q_func/action_value/fully_connected_1/weights"
      }
    }
  }
  attr {
    key: "dtype"
    value {
      type: DT_INT32
    }
  }
  attr {
    key: "value"
    value {
      tensor {
        dtype: DT_INT32
        tensor_shape {
          dim {
            size: 2
          }
        }
        tensor_content: "\000\001\000\000\006\000\000\000"
      }
    }
  }
}
node {
  name: "deepq/q_func/action_value/fully_connected_1/weights/Initializer/random_uniform/min"
  op: "Const"
  attr {
    key: "_class"
    value {
      list {
        s: "loc:@deepq/q_func/action_value/fully_connected_1/weights"
      }
    }
  }
  attr {
    key: "dtype"
    value {
      type: DT_FLOAT
    }
  }
  attr {
    key: "value"
    value {
      tensor {
        dtype: DT_FLOAT
        tensor_shape {
        }
        float_val: -0.15132997930049896
      }
    }
  }
}
node {
  name: "deepq/q_func/action_value/fully_connected_1/weights/Initializer/random_uniform/max"
  op: "Const"
  attr {
    key: "_class"
    value {
      list {
        s: "loc:@deepq/q_func/action_value/fully_connected_1/weights"
      }
    }
  }
  attr {
    key: "dtype"
    value {
      type: DT_FLOAT
    }
  }
  attr {
    key: "value"
    value {
      tensor {
        dtype: DT_FLOAT
        tensor_shape {
        }
        float_val: 0.15132997930049896
      }
    }
  }
}
node {
  name: "deepq/q_func/action_value/fully_connected_1/weights/Initializer/random_uniform/RandomUniform"
  op: "RandomUniform"
  input: "deepq/q_func/action_value/fully_connected_1/weights/Initializer/random_uniform/shape"
  attr {
    key: "T"
    value {
      type: DT_INT32
    }
  }
  attr {
    key: "_class"
    value {
      list {
        s: "loc:@deepq/q_func/action_value/fully_connected_1/weights"
      }
    }
  }
  attr {
    key: "dtype"
    value {
      type: DT_FLOAT
    }
  }
  attr {
    key: "seed"
    value {
      i: 0
    }
  }
  attr {
    key: "seed2"
    value {
      i: 0
    }
  }
}
node {
  name: "deepq/q_func/action_value/fully_connected_1/weights/Initializer/random_uniform/sub"
  op: "Sub"
  input: "deepq/q_func/action_value/fully_connected_1/weights/Initializer/random_uniform/max"
  input: "deepq/q_func/action_value/fully_connected_1/weights/Initializer/random_uniform/min"
  attr {
    key: "T"
    value {
      type: DT_FLOAT
    }
  }
  attr {
    key: "_class"
    value {
      list {
        s: "loc:@deepq/q_func/action_value/fully_connected_1/weights"
      }
    }
  }
}
node {
  name: "deepq/q_func/action_value/fully_connected_1/weights/Initializer/random_uniform/mul"
  op: "Mul"
  input: "deepq/q_func/action_value/fully_connected_1/weights/Initializer/random_uniform/RandomUniform"
  input: "deepq/q_func/action_value/fully_connected_1/weights/Initializer/random_uniform/sub"
  attr {
    key: "T"
    value {
      type: DT_FLOAT
    }
  }
  attr {
    key: "_class"
    value {
      list {
        s: "loc:@deepq/q_func/action_value/fully_connected_1/weights"
      }
    }
  }
}
node {
  name: "deepq/q_func/action_value/fully_connected_1/weights/Initializer/random_uniform"
  op: "Add"
  input: "deepq/q_func/action_value/fully_connected_1/weights/Initializer/random_uniform/mul"
  input: "deepq/q_func/action_value/fully_connected_1/weights/Initializer/random_uniform/min"
  attr {
    key: "T"
    value {
      type: DT_FLOAT
    }
  }
  attr {
    key: "_class"
    value {
      list {
        s: "loc:@deepq/q_func/action_value/fully_connected_1/weights"
      }
    }
  }
}
node {
  name: "deepq/q_func/action_value/fully_connected_1/weights"
  op: "VariableV2"
  attr {
    key: "_class"
    value {
      list {
        s: "loc:@deepq/q_func/action_value/fully_connected_1/weights"
      }
    }
  }
  attr {
    key: "container"
    value {
      s: ""
    }
  }
  attr {
    key: "dtype"
    value {
      type: DT_FLOAT
    }
  }
  attr {
    key: "shape"
    value {
      shape {
        dim {
          size: 256
        }
        dim {
          size: 6
        }
      }
    }
  }
  attr {
    key: "shared_name"
    value {
      s: ""
    }
  }
}
node {
  name: "deepq/q_func/action_value/fully_connected_1/weights/Assign"
  op: "Assign"
  input: "deepq/q_func/action_value/fully_connected_1/weights"
  input: "deepq/q_func/action_value/fully_connected_1/weights/Initializer/random_uniform"
  attr {
    key: "T"
    value {
      type: DT_FLOAT
    }
  }
  attr {
    key: "_class"
    value {
      list {
        s: "loc:@deepq/q_func/action_value/fully_connected_1/weights"
      }
    }
  }
  attr {
    key: "use_locking"
    value {
      b: true
    }
  }
  attr {
    key: "validate_shape"
    value {
      b: true
    }
  }
}
node {
  name: "deepq/q_func/action_value/fully_connected_1/weights/read"
  op: "Identity"
  input: "deepq/q_func/action_value/fully_connected_1/weights"
  attr {
    key: "T"
    value {
      type: DT_FLOAT
    }
  }
  attr {
    key: "_class"
    value {
      list {
        s: "loc:@deepq/q_func/action_value/fully_connected_1/weights"
      }
    }
  }
}
node {
  name: "deepq/q_func/action_value/fully_connected_1/biases/Initializer/zeros"
  op: "Const"
  attr {
    key: "_class"
    value {
      list {
        s: "loc:@deepq/q_func/action_value/fully_connected_1/biases"
      }
    }
  }
  attr {
    key: "dtype"
    value {
      type: DT_FLOAT
    }
  }
  attr {
    key: "value"
    value {
      tensor {
        dtype: DT_FLOAT
        tensor_shape {
          dim {
            size: 6
          }
        }
        float_val: 0.0
      }
    }
  }
}
node {
  name: "deepq/q_func/action_value/fully_connected_1/biases"
  op: "VariableV2"
  attr {
    key: "_class"
    value {
      list {
        s: "loc:@deepq/q_func/action_value/fully_connected_1/biases"
      }
    }
  }
  attr {
    key: "container"
    value {
      s: ""
    }
  }
  attr {
    key: "dtype"
    value {
      type: DT_FLOAT
    }
  }
  attr {
    key: "shape"
    value {
      shape {
        dim {
          size: 6
        }
      }
    }
  }
  attr {
    key: "shared_name"
    value {
      s: ""
    }
  }
}
node {
  name: "deepq/q_func/action_value/fully_connected_1/biases/Assign"
  op: "Assign"
  input: "deepq/q_func/action_value/fully_connected_1/biases"
  input: "deepq/q_func/action_value/fully_connected_1/biases/Initializer/zeros"
  attr {
    key: "T"
    value {
      type: DT_FLOAT
    }
  }
  attr {
    key: "_class"
    value {
      list {
        s: "loc:@deepq/q_func/action_value/fully_connected_1/biases"
      }
    }
  }
  attr {
    key: "use_locking"
    value {
      b: true
    }
  }
  attr {
    key: "validate_shape"
    value {
      b: true
    }
  }
}
node {
  name: "deepq/q_func/action_value/fully_connected_1/biases/read"
  op: "Identity"
  input: "deepq/q_func/action_value/fully_connected_1/biases"
  attr {
    key: "T"
    value {
      type: DT_FLOAT
    }
  }
  attr {
    key: "_class"
    value {
      list {
        s: "loc:@deepq/q_func/action_value/fully_connected_1/biases"
      }
    }
  }
}
node {
  name: "deepq/q_func/action_value/fully_connected_1/MatMul"
  op: "MatMul"
  input: "deepq/q_func/action_value/Relu"
  input: "deepq/q_func/action_value/fully_connected_1/weights/read"
  attr {
    key: "T"
    value {
      type: DT_FLOAT
    }
  }
  attr {
    key: "transpose_a"
    value {
      b: false
    }
  }
  attr {
    key: "transpose_b"
    value {
      b: false
    }
  }
}
node {
  name: "deepq/q_func/action_value/fully_connected_1/BiasAdd"
  op: "BiasAdd"
  input: "deepq/q_func/action_value/fully_connected_1/MatMul"
  input: "deepq/q_func/action_value/fully_connected_1/biases/read"
  attr {
    key: "T"
    value {
      type: DT_FLOAT
    }
  }
  attr {
    key: "data_format"
    value {
      s: "NHWC"
    }
  }
}
node {
  name: "deepq/q_func/state_value/fully_connected/weights/Initializer/random_uniform/shape"
  op: "Const"
  attr {
    key: "_class"
    value {
      list {
        s: "loc:@deepq/q_func/state_value/fully_connected/weights"
      }
    }
  }
  attr {
    key: "dtype"
    value {
      type: DT_INT32
    }
  }
  attr {
    key: "value"
    value {
      tensor {
        dtype: DT_INT32
        tensor_shape {
          dim {
            size: 2
          }
        }
        tensor_content: "@\036\000\000\000\001\000\000"
      }
    }
  }
}
node {
  name: "deepq/q_func/state_value/fully_connected/weights/Initializer/random_uniform/min"
  op: "Const"
  attr {
    key: "_class"
    value {
      list {
        s: "loc:@deepq/q_func/state_value/fully_connected/weights"
      }
    }
  }
  attr {
    key: "dtype"
    value {
      type: DT_FLOAT
    }
  }
  attr {
    key: "value"
    value {
      tensor {
        dtype: DT_FLOAT
        tensor_shape {
        }
        float_val: -0.027386127039790154
      }
    }
  }
}
node {
  name: "deepq/q_func/state_value/fully_connected/weights/Initializer/random_uniform/max"
  op: "Const"
  attr {
    key: "_class"
    value {
      list {
        s: "loc:@deepq/q_func/state_value/fully_connected/weights"
      }
    }
  }
  attr {
    key: "dtype"
    value {
      type: DT_FLOAT
    }
  }
  attr {
    key: "value"
    value {
      tensor {
        dtype: DT_FLOAT
        tensor_shape {
        }
        float_val: 0.027386127039790154
      }
    }
  }
}
node {
  name: "deepq/q_func/state_value/fully_connected/weights/Initializer/random_uniform/RandomUniform"
  op: "RandomUniform"
  input: "deepq/q_func/state_value/fully_connected/weights/Initializer/random_uniform/shape"
  attr {
    key: "T"
    value {
      type: DT_INT32
    }
  }
  attr {
    key: "_class"
    value {
      list {
        s: "loc:@deepq/q_func/state_value/fully_connected/weights"
      }
    }
  }
  attr {
    key: "dtype"
    value {
      type: DT_FLOAT
    }
  }
  attr {
    key: "seed"
    value {
      i: 0
    }
  }
  attr {
    key: "seed2"
    value {
      i: 0
    }
  }
}
node {
  name: "deepq/q_func/state_value/fully_connected/weights/Initializer/random_uniform/sub"
  op: "Sub"
  input: "deepq/q_func/state_value/fully_connected/weights/Initializer/random_uniform/max"
  input: "deepq/q_func/state_value/fully_connected/weights/Initializer/random_uniform/min"
  attr {
    key: "T"
    value {
      type: DT_FLOAT
    }
  }
  attr {
    key: "_class"
    value {
      list {
        s: "loc:@deepq/q_func/state_value/fully_connected/weights"
      }
    }
  }
}
node {
  name: "deepq/q_func/state_value/fully_connected/weights/Initializer/random_uniform/mul"
  op: "Mul"
  input: "deepq/q_func/state_value/fully_connected/weights/Initializer/random_uniform/RandomUniform"
  input: "deepq/q_func/state_value/fully_connected/weights/Initializer/random_uniform/sub"
  attr {
    key: "T"
    value {
      type: DT_FLOAT
    }
  }
  attr {
    key: "_class"
    value {
      list {
        s: "loc:@deepq/q_func/state_value/fully_connected/weights"
      }
    }
  }
}
node {
  name: "deepq/q_func/state_value/fully_connected/weights/Initializer/random_uniform"
  op: "Add"
  input: "deepq/q_func/state_value/fully_connected/weights/Initializer/random_uniform/mul"
  input: "deepq/q_func/state_value/fully_connected/weights/Initializer/random_uniform/min"
  attr {
    key: "T"
    value {
      type: DT_FLOAT
    }
  }
  attr {
    key: "_class"
    value {
      list {
        s: "loc:@deepq/q_func/state_value/fully_connected/weights"
      }
    }
  }
}
node {
  name: "deepq/q_func/state_value/fully_connected/weights"
  op: "VariableV2"
  attr {
    key: "_class"
    value {
      list {
        s: "loc:@deepq/q_func/state_value/fully_connected/weights"
      }
    }
  }
  attr {
    key: "container"
    value {
      s: ""
    }
  }
  attr {
    key: "dtype"
    value {
      type: DT_FLOAT
    }
  }
  attr {
    key: "shape"
    value {
      shape {
        dim {
          size: 7744
        }
        dim {
          size: 256
        }
      }
    }
  }
  attr {
    key: "shared_name"
    value {
      s: ""
    }
  }
}
node {
  name: "deepq/q_func/state_value/fully_connected/weights/Assign"
  op: "Assign"
  input: "deepq/q_func/state_value/fully_connected/weights"
  input: "deepq/q_func/state_value/fully_connected/weights/Initializer/random_uniform"
  attr {
    key: "T"
    value {
      type: DT_FLOAT
    }
  }
  attr {
    key: "_class"
    value {
      list {
        s: "loc:@deepq/q_func/state_value/fully_connected/weights"
      }
    }
  }
  attr {
    key: "use_locking"
    value {
      b: true
    }
  }
  attr {
    key: "validate_shape"
    value {
      b: true
    }
  }
}
node {
  name: "deepq/q_func/state_value/fully_connected/weights/read"
  op: "Identity"
  input: "deepq/q_func/state_value/fully_connected/weights"
  attr {
    key: "T"
    value {
      type: DT_FLOAT
    }
  }
  attr {
    key: "_class"
    value {
      list {
        s: "loc:@deepq/q_func/state_value/fully_connected/weights"
      }
    }
  }
}
node {
  name: "deepq/q_func/state_value/fully_connected/biases/Initializer/zeros"
  op: "Const"
  attr {
    key: "_class"
    value {
      list {
        s: "loc:@deepq/q_func/state_value/fully_connected/biases"
      }
    }
  }
  attr {
    key: "dtype"
    value {
      type: DT_FLOAT
    }
  }
  attr {
    key: "value"
    value {
      tensor {
        dtype: DT_FLOAT
        tensor_shape {
          dim {
            size: 256
          }
        }
        float_val: 0.0
      }
    }
  }
}
node {
  name: "deepq/q_func/state_value/fully_connected/biases"
  op: "VariableV2"
  attr {
    key: "_class"
    value {
      list {
        s: "loc:@deepq/q_func/state_value/fully_connected/biases"
      }
    }
  }
  attr {
    key: "container"
    value {
      s: ""
    }
  }
  attr {
    key: "dtype"
    value {
      type: DT_FLOAT
    }
  }
  attr {
    key: "shape"
    value {
      shape {
        dim {
          size: 256
        }
      }
    }
  }
  attr {
    key: "shared_name"
    value {
      s: ""
    }
  }
}
node {
  name: "deepq/q_func/state_value/fully_connected/biases/Assign"
  op: "Assign"
  input: "deepq/q_func/state_value/fully_connected/biases"
  input: "deepq/q_func/state_value/fully_connected/biases/Initializer/zeros"
  attr {
    key: "T"
    value {
      type: DT_FLOAT
    }
  }
  attr {
    key: "_class"
    value {
      list {
        s: "loc:@deepq/q_func/state_value/fully_connected/biases"
      }
    }
  }
  attr {
    key: "use_locking"
    value {
      b: true
    }
  }
  attr {
    key: "validate_shape"
    value {
      b: true
    }
  }
}
node {
  name: "deepq/q_func/state_value/fully_connected/biases/read"
  op: "Identity"
  input: "deepq/q_func/state_value/fully_connected/biases"
  attr {
    key: "T"
    value {
      type: DT_FLOAT
    }
  }
  attr {
    key: "_class"
    value {
      list {
        s: "loc:@deepq/q_func/state_value/fully_connected/biases"
      }
    }
  }
}
node {
  name: "deepq/q_func/state_value/fully_connected/MatMul"
  op: "MatMul"
  input: "deepq/q_func/Flatten/flatten/Reshape"
  input: "deepq/q_func/state_value/fully_connected/weights/read"
  attr {
    key: "T"
    value {
      type: DT_FLOAT
    }
  }
  attr {
    key: "transpose_a"
    value {
      b: false
    }
  }
  attr {
    key: "transpose_b"
    value {
      b: false
    }
  }
}
node {
  name: "deepq/q_func/state_value/fully_connected/BiasAdd"
  op: "BiasAdd"
  input: "deepq/q_func/state_value/fully_connected/MatMul"
  input: "deepq/q_func/state_value/fully_connected/biases/read"
  attr {
    key: "T"
    value {
      type: DT_FLOAT
    }
  }
  attr {
    key: "data_format"
    value {
      s: "NHWC"
    }
  }
}
node {
  name: "deepq/q_func/state_value/Relu"
  op: "Relu"
  input: "deepq/q_func/state_value/fully_connected/BiasAdd"
  attr {
    key: "T"
    value {
      type: DT_FLOAT
    }
  }
}
node {
  name: "deepq/q_func/state_value/fully_connected_1/weights/Initializer/random_uniform/shape"
  op: "Const"
  attr {
    key: "_class"
    value {
      list {
        s: "loc:@deepq/q_func/state_value/fully_connected_1/weights"
      }
    }
  }
  attr {
    key: "dtype"
    value {
      type: DT_INT32
    }
  }
  attr {
    key: "value"
    value {
      tensor {
        dtype: DT_INT32
        tensor_shape {
          dim {
            size: 2
          }
        }
        tensor_content: "\000\001\000\000\001\000\000\000"
      }
    }
  }
}
node {
  name: "deepq/q_func/state_value/fully_connected_1/weights/Initializer/random_uniform/min"
  op: "Const"
  attr {
    key: "_class"
    value {
      list {
        s: "loc:@deepq/q_func/state_value/fully_connected_1/weights"
      }
    }
  }
  attr {
    key: "dtype"
    value {
      type: DT_FLOAT
    }
  }
  attr {
    key: "value"
    value {
      tensor {
        dtype: DT_FLOAT
        tensor_shape {
        }
        float_val: -0.1527949720621109
      }
    }
  }
}
node {
  name: "deepq/q_func/state_value/fully_connected_1/weights/Initializer/random_uniform/max"
  op: "Const"
  attr {
    key: "_class"
    value {
      list {
        s: "loc:@deepq/q_func/state_value/fully_connected_1/weights"
      }
    }
  }
  attr {
    key: "dtype"
    value {
      type: DT_FLOAT
    }
  }
  attr {
    key: "value"
    value {
      tensor {
        dtype: DT_FLOAT
        tensor_shape {
        }
        float_val: 0.1527949720621109
      }
    }
  }
}
node {
  name: "deepq/q_func/state_value/fully_connected_1/weights/Initializer/random_uniform/RandomUniform"
  op: "RandomUniform"
  input: "deepq/q_func/state_value/fully_connected_1/weights/Initializer/random_uniform/shape"
  attr {
    key: "T"
    value {
      type: DT_INT32
    }
  }
  attr {
    key: "_class"
    value {
      list {
        s: "loc:@deepq/q_func/state_value/fully_connected_1/weights"
      }
    }
  }
  attr {
    key: "dtype"
    value {
      type: DT_FLOAT
    }
  }
  attr {
    key: "seed"
    value {
      i: 0
    }
  }
  attr {
    key: "seed2"
    value {
      i: 0
    }
  }
}
node {
  name: "deepq/q_func/state_value/fully_connected_1/weights/Initializer/random_uniform/sub"
  op: "Sub"
  input: "deepq/q_func/state_value/fully_connected_1/weights/Initializer/random_uniform/max"
  input: "deepq/q_func/state_value/fully_connected_1/weights/Initializer/random_uniform/min"
  attr {
    key: "T"
    value {
      type: DT_FLOAT
    }
  }
  attr {
    key: "_class"
    value {
      list {
        s: "loc:@deepq/q_func/state_value/fully_connected_1/weights"
      }
    }
  }
}
node {
  name: "deepq/q_func/state_value/fully_connected_1/weights/Initializer/random_uniform/mul"
  op: "Mul"
  input: "deepq/q_func/state_value/fully_connected_1/weights/Initializer/random_uniform/RandomUniform"
  input: "deepq/q_func/state_value/fully_connected_1/weights/Initializer/random_uniform/sub"
  attr {
    key: "T"
    value {
      type: DT_FLOAT
    }
  }
  attr {
    key: "_class"
    value {
      list {
        s: "loc:@deepq/q_func/state_value/fully_connected_1/weights"
      }
    }
  }
}
node {
  name: "deepq/q_func/state_value/fully_connected_1/weights/Initializer/random_uniform"
  op: "Add"
  input: "deepq/q_func/state_value/fully_connected_1/weights/Initializer/random_uniform/mul"
  input: "deepq/q_func/state_value/fully_connected_1/weights/Initializer/random_uniform/min"
  attr {
    key: "T"
    value {
      type: DT_FLOAT
    }
  }
  attr {
    key: "_class"
    value {
      list {
        s: "loc:@deepq/q_func/state_value/fully_connected_1/weights"
      }
    }
  }
}
node {
  name: "deepq/q_func/state_value/fully_connected_1/weights"
  op: "VariableV2"
  attr {
    key: "_class"
    value {
      list {
        s: "loc:@deepq/q_func/state_value/fully_connected_1/weights"
      }
    }
  }
  attr {
    key: "container"
    value {
      s: ""
    }
  }
  attr {
    key: "dtype"
    value {
      type: DT_FLOAT
    }
  }
  attr {
    key: "shape"
    value {
      shape {
        dim {
          size: 256
        }
        dim {
          size: 1
        }
      }
    }
  }
  attr {
    key: "shared_name"
    value {
      s: ""
    }
  }
}
node {
  name: "deepq/q_func/state_value/fully_connected_1/weights/Assign"
  op: "Assign"
  input: "deepq/q_func/state_value/fully_connected_1/weights"
  input: "deepq/q_func/state_value/fully_connected_1/weights/Initializer/random_uniform"
  attr {
    key: "T"
    value {
      type: DT_FLOAT
    }
  }
  attr {
    key: "_class"
    value {
      list {
        s: "loc:@deepq/q_func/state_value/fully_connected_1/weights"
      }
    }
  }
  attr {
    key: "use_locking"
    value {
      b: true
    }
  }
  attr {
    key: "validate_shape"
    value {
      b: true
    }
  }
}
node {
  name: "deepq/q_func/state_value/fully_connected_1/weights/read"
  op: "Identity"
  input: "deepq/q_func/state_value/fully_connected_1/weights"
  attr {
    key: "T"
    value {
      type: DT_FLOAT
    }
  }
  attr {
    key: "_class"
    value {
      list {
        s: "loc:@deepq/q_func/state_value/fully_connected_1/weights"
      }
    }
  }
}
node {
  name: "deepq/q_func/state_value/fully_connected_1/biases/Initializer/zeros"
  op: "Const"
  attr {
    key: "_class"
    value {
      list {
        s: "loc:@deepq/q_func/state_value/fully_connected_1/biases"
      }
    }
  }
  attr {
    key: "dtype"
    value {
      type: DT_FLOAT
    }
  }
  attr {
    key: "value"
    value {
      tensor {
        dtype: DT_FLOAT
        tensor_shape {
          dim {
            size: 1
          }
        }
        float_val: 0.0
      }
    }
  }
}
node {
  name: "deepq/q_func/state_value/fully_connected_1/biases"
  op: "VariableV2"
  attr {
    key: "_class"
    value {
      list {
        s: "loc:@deepq/q_func/state_value/fully_connected_1/biases"
      }
    }
  }
  attr {
    key: "container"
    value {
      s: ""
    }
  }
  attr {
    key: "dtype"
    value {
      type: DT_FLOAT
    }
  }
  attr {
    key: "shape"
    value {
      shape {
        dim {
          size: 1
        }
      }
    }
  }
  attr {
    key: "shared_name"
    value {
      s: ""
    }
  }
}
node {
  name: "deepq/q_func/state_value/fully_connected_1/biases/Assign"
  op: "Assign"
  input: "deepq/q_func/state_value/fully_connected_1/biases"
  input: "deepq/q_func/state_value/fully_connected_1/biases/Initializer/zeros"
  attr {
    key: "T"
    value {
      type: DT_FLOAT
    }
  }
  attr {
    key: "_class"
    value {
      list {
        s: "loc:@deepq/q_func/state_value/fully_connected_1/biases"
      }
    }
  }
  attr {
    key: "use_locking"
    value {
      b: true
    }
  }
  attr {
    key: "validate_shape"
    value {
      b: true
    }
  }
}
node {
  name: "deepq/q_func/state_value/fully_connected_1/biases/read"
  op: "Identity"
  input: "deepq/q_func/state_value/fully_connected_1/biases"
  attr {
    key: "T"
    value {
      type: DT_FLOAT
    }
  }
  attr {
    key: "_class"
    value {
      list {
        s: "loc:@deepq/q_func/state_value/fully_connected_1/biases"
      }
    }
  }
}
node {
  name: "deepq/q_func/state_value/fully_connected_1/MatMul"
  op: "MatMul"
  input: "deepq/q_func/state_value/Relu"
  input: "deepq/q_func/state_value/fully_connected_1/weights/read"
  attr {
    key: "T"
    value {
      type: DT_FLOAT
    }
  }
  attr {
    key: "transpose_a"
    value {
      b: false
    }
  }
  attr {
    key: "transpose_b"
    value {
      b: false
    }
  }
}
node {
  name: "deepq/q_func/state_value/fully_connected_1/BiasAdd"
  op: "BiasAdd"
  input: "deepq/q_func/state_value/fully_connected_1/MatMul"
  input: "deepq/q_func/state_value/fully_connected_1/biases/read"
  attr {
    key: "T"
    value {
      type: DT_FLOAT
    }
  }
  attr {
    key: "data_format"
    value {
      s: "NHWC"
    }
  }
}
node {
  name: "deepq/q_func/Mean/reduction_indices"
  op: "Const"
  attr {
    key: "dtype"
    value {
      type: DT_INT32
    }
  }
  attr {
    key: "value"
    value {
      tensor {
        dtype: DT_INT32
        tensor_shape {
        }
        int_val: 1
      }
    }
  }
}
node {
  name: "deepq/q_func/Mean"
  op: "Mean"
  input: "deepq/q_func/action_value/fully_connected_1/BiasAdd"
  input: "deepq/q_func/Mean/reduction_indices"
  attr {
    key: "T"
    value {
      type: DT_FLOAT
    }
  }
  attr {
    key: "Tidx"
    value {
      type: DT_INT32
    }
  }
  attr {
    key: "keep_dims"
    value {
      b: false
    }
  }
}
node {
  name: "deepq/q_func/ExpandDims/dim"
  op: "Const"
  attr {
    key: "dtype"
    value {
      type: DT_INT32
    }
  }
  attr {
    key: "value"
    value {
      tensor {
        dtype: DT_INT32
        tensor_shape {
        }
        int_val: 1
      }
    }
  }
}
node {
  name: "deepq/q_func/ExpandDims"
  op: "ExpandDims"
  input: "deepq/q_func/Mean"
  input: "deepq/q_func/ExpandDims/dim"
  attr {
    key: "T"
    value {
      type: DT_FLOAT
    }
  }
  attr {
    key: "Tdim"
    value {
      type: DT_INT32
    }
  }
}
node {
  name: "deepq/q_func/sub"
  op: "Sub"
  input: "deepq/q_func/action_value/fully_connected_1/BiasAdd"
  input: "deepq/q_func/ExpandDims"
  attr {
    key: "T"
    value {
      type: DT_FLOAT
    }
  }
}
node {
  name: "deepq/q_func/add"
  op: "Add"
  input: "deepq/q_func/state_value/fully_connected_1/BiasAdd"
  input: "deepq/q_func/sub"
  attr {
    key: "T"
    value {
      type: DT_FLOAT
    }
  }
}
node {
  name: "deepq/ArgMax/dimension"
  op: "Const"
  attr {
    key: "dtype"
    value {
      type: DT_INT32
    }
  }
  attr {
    key: "value"
    value {
      tensor {
        dtype: DT_INT32
        tensor_shape {
        }
        int_val: 1
      }
    }
  }
}
node {
  name: "deepq/ArgMax"
  op: "ArgMax"
  input: "deepq/q_func/add"
  input: "deepq/ArgMax/dimension"
  attr {
    key: "T"
    value {
      type: DT_FLOAT
    }
  }
  attr {
    key: "Tidx"
    value {
      type: DT_INT32
    }
  }
  attr {
    key: "output_type"
    value {
      type: DT_INT64
    }
  }
}
node {
  name: "deepq/Shape"
  op: "Shape"
  input: "deepq/observation"
  attr {
    key: "T"
    value {
      type: DT_FLOAT
    }
  }
  attr {
    key: "out_type"
    value {
      type: DT_INT32
    }
  }
}
node {
  name: "deepq/strided_slice/stack"
  op: "Const"
  attr {
    key: "dtype"
    value {
      type: DT_INT32
    }
  }
  attr {
    key: "value"
    value {
      tensor {
        dtype: DT_INT32
        tensor_shape {
          dim {
            size: 1
          }
        }
        int_val: 0
      }
    }
  }
}
node {
  name: "deepq/strided_slice/stack_1"
  op: "Const"
  attr {
    key: "dtype"
    value {
      type: DT_INT32
    }
  }
  attr {
    key: "value"
    value {
      tensor {
        dtype: DT_INT32
        tensor_shape {
          dim {
            size: 1
          }
        }
        int_val: 1
      }
    }
  }
}
node {
  name: "deepq/strided_slice/stack_2"
  op: "Const"
  attr {
    key: "dtype"
    value {
      type: DT_INT32
    }
  }
  attr {
    key: "value"
    value {
      tensor {
        dtype: DT_INT32
        tensor_shape {
          dim {
            size: 1
          }
        }
        int_val: 1
      }
    }
  }
}
node {
  name: "deepq/strided_slice"
  op: "StridedSlice"
  input: "deepq/Shape"
  input: "deepq/strided_slice/stack"
  input: "deepq/strided_slice/stack_1"
  input: "deepq/strided_slice/stack_2"
  attr {
    key: "Index"
    value {
      type: DT_INT32
    }
  }
  attr {
    key: "T"
    value {
      type: DT_INT32
    }
  }
  attr {
    key: "begin_mask"
    value {
      i: 0
    }
  }
  attr {
    key: "ellipsis_mask"
    value {
      i: 0
    }
  }
  attr {
    key: "end_mask"
    value {
      i: 0
    }
  }
  attr {
    key: "new_axis_mask"
    value {
      i: 0
    }
  }
  attr {
    key: "shrink_axis_mask"
    value {
      i: 1
    }
  }
}
node {
  name: "deepq/stack"
  op: "Pack"
  input: "deepq/strided_slice"
  attr {
    key: "N"
    value {
      i: 1
    }
  }
  attr {
    key: "T"
    value {
      type: DT_INT32
    }
  }
  attr {
    key: "axis"
    value {
      i: 0
    }
  }
}
node {
  name: "deepq/random_uniform/min"
  op: "Const"
  attr {
    key: "dtype"
    value {
      type: DT_INT64
    }
  }
  attr {
    key: "value"
    value {
      tensor {
        dtype: DT_INT64
        tensor_shape {
        }
        int64_val: 0
      }
    }
  }
}
node {
  name: "deepq/random_uniform/max"
  op: "Const"
  attr {
    key: "dtype"
    value {
      type: DT_INT64
    }
  }
  attr {
    key: "value"
    value {
      tensor {
        dtype: DT_INT64
        tensor_shape {
        }
        int64_val: 6
      }
    }
  }
}
node {
  name: "deepq/random_uniform"
  op: "RandomUniformInt"
  input: "deepq/stack"
  input: "deepq/random_uniform/min"
  input: "deepq/random_uniform/max"
  attr {
    key: "T"
    value {
      type: DT_INT32
    }
  }
  attr {
    key: "Tout"
    value {
      type: DT_INT64
    }
  }
  attr {
    key: "seed"
    value {
      i: 0
    }
  }
  attr {
    key: "seed2"
    value {
      i: 0
    }
  }
}
node {
  name: "deepq/stack_1"
  op: "Pack"
  input: "deepq/strided_slice"
  attr {
    key: "N"
    value {
      i: 1
    }
  }
  attr {
    key: "T"
    value {
      type: DT_INT32
    }
  }
  attr {
    key: "axis"
    value {
      i: 0
    }
  }
}
node {
  name: "deepq/random_uniform_1/min"
  op: "Const"
  attr {
    key: "dtype"
    value {
      type: DT_FLOAT
    }
  }
  attr {
    key: "value"
    value {
      tensor {
        dtype: DT_FLOAT
        tensor_shape {
        }
        float_val: 0.0
      }
    }
  }
}
node {
  name: "deepq/random_uniform_1/max"
  op: "Const"
  attr {
    key: "dtype"
    value {
      type: DT_FLOAT
    }
  }
  attr {
    key: "value"
    value {
      tensor {
        dtype: DT_FLOAT
        tensor_shape {
        }
        float_val: 1.0
      }
    }
  }
}
node {
  name: "deepq/random_uniform_1/RandomUniform"
  op: "RandomUniform"
  input: "deepq/stack_1"
  attr {
    key: "T"
    value {
      type: DT_INT32
    }
  }
  attr {
    key: "dtype"
    value {
      type: DT_FLOAT
    }
  }
  attr {
    key: "seed"
    value {
      i: 0
    }
  }
  attr {
    key: "seed2"
    value {
      i: 0
    }
  }
}
node {
  name: "deepq/random_uniform_1/sub"
  op: "Sub"
  input: "deepq/random_uniform_1/max"
  input: "deepq/random_uniform_1/min"
  attr {
    key: "T"
    value {
      type: DT_FLOAT
    }
  }
}
node {
  name: "deepq/random_uniform_1/mul"
  op: "Mul"
  input: "deepq/random_uniform_1/RandomUniform"
  input: "deepq/random_uniform_1/sub"
  attr {
    key: "T"
    value {
      type: DT_FLOAT
    }
  }
}
node {
  name: "deepq/random_uniform_1"
  op: "Add"
  input: "deepq/random_uniform_1/mul"
  input: "deepq/random_uniform_1/min"
  attr {
    key: "T"
    value {
      type: DT_FLOAT
    }
  }
}
node {
  name: "deepq/Less"
  op: "Less"
  input: "deepq/random_uniform_1"
  input: "deepq/eps/read"
  attr {
    key: "T"
    value {
      type: DT_FLOAT
    }
  }
}
node {
  name: "deepq/Select"
  op: "Select"
  input: "deepq/Less"
  input: "deepq/random_uniform"
  input: "deepq/ArgMax"
  attr {
    key: "T"
    value {
      type: DT_INT64
    }
  }
}
node {
  name: "deepq/cond/Switch"
  op: "Switch"
  input: "deepq/stochastic"
  input: "deepq/stochastic"
  attr {
    key: "T"
    value {
      type: DT_BOOL
    }
  }
}
node {
  name: "deepq/cond/switch_t"
  op: "Identity"
  input: "deepq/cond/Switch:1"
  attr {
    key: "T"
    value {
      type: DT_BOOL
    }
  }
}
node {
  name: "deepq/cond/switch_f"
  op: "Identity"
  input: "deepq/cond/Switch"
  attr {
    key: "T"
    value {
      type: DT_BOOL
    }
  }
}
node {
  name: "deepq/cond/pred_id"
  op: "Identity"
  input: "deepq/stochastic"
  attr {
    key: "T"
    value {
      type: DT_BOOL
    }
  }
}
node {
  name: "deepq/cond/Switch_1"
  op: "Switch"
  input: "deepq/Select"
  input: "deepq/cond/pred_id"
  attr {
    key: "T"
    value {
      type: DT_INT64
    }
  }
  attr {
    key: "_class"
    value {
      list {
        s: "loc:@deepq/Select"
      }
    }
  }
}
node {
  name: "deepq/cond/Switch_2"
  op: "Switch"
  input: "deepq/ArgMax"
  input: "deepq/cond/pred_id"
  attr {
    key: "T"
    value {
      type: DT_INT64
    }
  }
  attr {
    key: "_class"
    value {
      list {
        s: "loc:@deepq/ArgMax"
      }
    }
  }
}
node {
  name: "deepq/cond/Merge"
  op: "Merge"
  input: "deepq/cond/Switch_2"
  input: "deepq/cond/Switch_1:1"
  attr {
    key: "N"
    value {
      i: 2
    }
  }
  attr {
    key: "T"
    value {
      type: DT_INT64
    }
  }
}
node {
  name: "deepq/GreaterEqual/y"
  op: "Const"
  attr {
    key: "dtype"
    value {
      type: DT_FLOAT
    }
  }
  attr {
    key: "value"
    value {
      tensor {
        dtype: DT_FLOAT
        tensor_shape {
        }
        float_val: 0.0
      }
    }
  }
}
node {
  name: "deepq/GreaterEqual"
  op: "GreaterEqual"
  input: "deepq/update_eps"
  input: "deepq/GreaterEqual/y"
  attr {
    key: "T"
    value {
      type: DT_FLOAT
    }
  }
}
node {
  name: "deepq/cond_1/Switch"
  op: "Switch"
  input: "deepq/GreaterEqual"
  input: "deepq/GreaterEqual"
  attr {
    key: "T"
    value {
      type: DT_BOOL
    }
  }
}
node {
  name: "deepq/cond_1/switch_t"
  op: "Identity"
  input: "deepq/cond_1/Switch:1"
  attr {
    key: "T"
    value {
      type: DT_BOOL
    }
  }
}
node {
  name: "deepq/cond_1/switch_f"
  op: "Identity"
  input: "deepq/cond_1/Switch"
  attr {
    key: "T"
    value {
      type: DT_BOOL
    }
  }
}
node {
  name: "deepq/cond_1/pred_id"
  op: "Identity"
  input: "deepq/GreaterEqual"
  attr {
    key: "T"
    value {
      type: DT_BOOL
    }
  }
}
node {
  name: "deepq/cond_1/Switch_1"
  op: "Switch"
  input: "deepq/update_eps"
  input: "deepq/cond_1/pred_id"
  attr {
    key: "T"
    value {
      type: DT_FLOAT
    }
  }
  attr {
    key: "_class"
    value {
      list {
        s: "loc:@deepq/update_eps"
      }
    }
  }
}
node {
  name: "deepq/cond_1/Switch_2"
  op: "Switch"
  input: "deepq/eps/read"
  input: "deepq/cond_1/pred_id"
  attr {
    key: "T"
    value {
      type: DT_FLOAT
    }
  }
  attr {
    key: "_class"
    value {
      list {
        s: "loc:@deepq/eps"
      }
    }
  }
}
node {
  name: "deepq/cond_1/Merge"
  op: "Merge"
  input: "deepq/cond_1/Switch_2"
  input: "deepq/cond_1/Switch_1:1"
  attr {
    key: "N"
    value {
      i: 2
    }
  }
  attr {
    key: "T"
    value {
      type: DT_FLOAT
    }
  }
}
node {
  name: "deepq/Assign"
  op: "Assign"
  input: "deepq/eps"
  input: "deepq/cond_1/Merge"
  attr {
    key: "T"
    value {
      type: DT_FLOAT
    }
  }
  attr {
    key: "_class"
    value {
      list {
        s: "loc:@deepq/eps"
      }
    }
  }
  attr {
    key: "use_locking"
    value {
      b: false
    }
  }
  attr {
    key: "validate_shape"
    value {
      b: true
    }
  }
}
node {
  name: "deepq/group_deps"
  op: "NoOp"
  input: "^deepq/Assign"
}
node {
  name: "deepq_1/obs_t"
  op: "Placeholder"
  attr {
    key: "dtype"
    value {
      type: DT_FLOAT
    }
  }
  attr {
    key: "shape"
    value {
      shape {
        dim {
          size: -1
        }
        dim {
          size: 84
        }
        dim {
          size: 84
        }
        dim {
          size: 4
        }
      }
    }
  }
}
node {
  name: "deepq_1/action"
  op: "Placeholder"
  attr {
    key: "dtype"
    value {
      type: DT_INT32
    }
  }
  attr {
    key: "shape"
    value {
      shape {
        dim {
          size: -1
        }
      }
    }
  }
}
node {
  name: "deepq_1/reward"
  op: "Placeholder"
  attr {
    key: "dtype"
    value {
      type: DT_FLOAT
    }
  }
  attr {
    key: "shape"
    value {
      shape {
        dim {
          size: -1
        }
      }
    }
  }
}
node {
  name: "deepq_1/obs_tp1"
  op: "Placeholder"
  attr {
    key: "dtype"
    value {
      type: DT_FLOAT
    }
  }
  attr {
    key: "shape"
    value {
      shape {
        dim {
          size: -1
        }
        dim {
          size: 84
        }
        dim {
          size: 84
        }
        dim {
          size: 4
        }
      }
    }
  }
}
node {
  name: "deepq_1/done"
  op: "Placeholder"
  attr {
    key: "dtype"
    value {
      type: DT_FLOAT
    }
  }
  attr {
    key: "shape"
    value {
      shape {
        dim {
          size: -1
        }
      }
    }
  }
}
node {
  name: "deepq_1/weight"
  op: "Placeholder"
  attr {
    key: "dtype"
    value {
      type: DT_FLOAT
    }
  }
  attr {
    key: "shape"
    value {
      shape {
        dim {
          size: -1
        }
      }
    }
  }
}
node {
  name: "deepq_1/q_func/truediv/y"
  op: "Const"
  attr {
    key: "dtype"
    value {
      type: DT_FLOAT
    }
  }
  attr {
    key: "value"
    value {
      tensor {
        dtype: DT_FLOAT
        tensor_shape {
        }
        float_val: 255.0
      }
    }
  }
}
node {
  name: "deepq_1/q_func/truediv"
  op: "RealDiv"
  input: "deepq_1/obs_t"
  input: "deepq_1/q_func/truediv/y"
  attr {
    key: "T"
    value {
      type: DT_FLOAT
    }
  }
}
node {
  name: "deepq_1/q_func/convnet/Conv/dilation_rate"
  op: "Const"
  attr {
    key: "dtype"
    value {
      type: DT_INT32
    }
  }
  attr {
    key: "value"
    value {
      tensor {
        dtype: DT_INT32
        tensor_shape {
          dim {
            size: 2
          }
        }
        tensor_content: "\001\000\000\000\001\000\000\000"
      }
    }
  }
}
node {
  name: "deepq_1/q_func/convnet/Conv/Conv2D"
  op: "Conv2D"
  input: "deepq_1/q_func/truediv"
  input: "deepq/q_func/convnet/Conv/weights/read"
  attr {
    key: "T"
    value {
      type: DT_FLOAT
    }
  }
  attr {
    key: "data_format"
    value {
      s: "NHWC"
    }
  }
  attr {
    key: "dilations"
    value {
      list {
        i: 1
        i: 1
        i: 1
        i: 1
      }
    }
  }
  attr {
    key: "padding"
    value {
      s: "SAME"
    }
  }
  attr {
    key: "strides"
    value {
      list {
        i: 1
        i: 4
        i: 4
        i: 1
      }
    }
  }
  attr {
    key: "use_cudnn_on_gpu"
    value {
      b: true
    }
  }
}
node {
  name: "deepq_1/q_func/convnet/Conv/BiasAdd"
  op: "BiasAdd"
  input: "deepq_1/q_func/convnet/Conv/Conv2D"
  input: "deepq/q_func/convnet/Conv/biases/read"
  attr {
    key: "T"
    value {
      type: DT_FLOAT
    }
  }
  attr {
    key: "data_format"
    value {
      s: "NHWC"
    }
  }
}
node {
  name: "deepq_1/q_func/convnet/Conv/Relu"
  op: "Relu"
  input: "deepq_1/q_func/convnet/Conv/BiasAdd"
  attr {
    key: "T"
    value {
      type: DT_FLOAT
    }
  }
}
node {
  name: "deepq_1/q_func/convnet/Conv_1/dilation_rate"
  op: "Const"
  attr {
    key: "dtype"
    value {
      type: DT_INT32
    }
  }
  attr {
    key: "value"
    value {
      tensor {
        dtype: DT_INT32
        tensor_shape {
          dim {
            size: 2
          }
        }
        tensor_content: "\001\000\000\000\001\000\000\000"
      }
    }
  }
}
node {
  name: "deepq_1/q_func/convnet/Conv_1/Conv2D"
  op: "Conv2D"
  input: "deepq_1/q_func/convnet/Conv/Relu"
  input: "deepq/q_func/convnet/Conv_1/weights/read"
  attr {
    key: "T"
    value {
      type: DT_FLOAT
    }
  }
  attr {
    key: "data_format"
    value {
      s: "NHWC"
    }
  }
  attr {
    key: "dilations"
    value {
      list {
        i: 1
        i: 1
        i: 1
        i: 1
      }
    }
  }
  attr {
    key: "padding"
    value {
      s: "SAME"
    }
  }
  attr {
    key: "strides"
    value {
      list {
        i: 1
        i: 2
        i: 2
        i: 1
      }
    }
  }
  attr {
    key: "use_cudnn_on_gpu"
    value {
      b: true
    }
  }
}
node {
  name: "deepq_1/q_func/convnet/Conv_1/BiasAdd"
  op: "BiasAdd"
  input: "deepq_1/q_func/convnet/Conv_1/Conv2D"
  input: "deepq/q_func/convnet/Conv_1/biases/read"
  attr {
    key: "T"
    value {
      type: DT_FLOAT
    }
  }
  attr {
    key: "data_format"
    value {
      s: "NHWC"
    }
  }
}
node {
  name: "deepq_1/q_func/convnet/Conv_1/Relu"
  op: "Relu"
  input: "deepq_1/q_func/convnet/Conv_1/BiasAdd"
  attr {
    key: "T"
    value {
      type: DT_FLOAT
    }
  }
}
node {
  name: "deepq_1/q_func/convnet/Conv_2/dilation_rate"
  op: "Const"
  attr {
    key: "dtype"
    value {
      type: DT_INT32
    }
  }
  attr {
    key: "value"
    value {
      tensor {
        dtype: DT_INT32
        tensor_shape {
          dim {
            size: 2
          }
        }
        tensor_content: "\001\000\000\000\001\000\000\000"
      }
    }
  }
}
node {
  name: "deepq_1/q_func/convnet/Conv_2/Conv2D"
  op: "Conv2D"
  input: "deepq_1/q_func/convnet/Conv_1/Relu"
  input: "deepq/q_func/convnet/Conv_2/weights/read"
  attr {
    key: "T"
    value {
      type: DT_FLOAT
    }
  }
  attr {
    key: "data_format"
    value {
      s: "NHWC"
    }
  }
  attr {
    key: "dilations"
    value {
      list {
        i: 1
        i: 1
        i: 1
        i: 1
      }
    }
  }
  attr {
    key: "padding"
    value {
      s: "SAME"
    }
  }
  attr {
    key: "strides"
    value {
      list {
        i: 1
        i: 1
        i: 1
        i: 1
      }
    }
  }
  attr {
    key: "use_cudnn_on_gpu"
    value {
      b: true
    }
  }
}
node {
  name: "deepq_1/q_func/convnet/Conv_2/BiasAdd"
  op: "BiasAdd"
  input: "deepq_1/q_func/convnet/Conv_2/Conv2D"
  input: "deepq/q_func/convnet/Conv_2/biases/read"
  attr {
    key: "T"
    value {
      type: DT_FLOAT
    }
  }
  attr {
    key: "data_format"
    value {
      s: "NHWC"
    }
  }
}
node {
  name: "deepq_1/q_func/convnet/Conv_2/Relu"
  op: "Relu"
  input: "deepq_1/q_func/convnet/Conv_2/BiasAdd"
  attr {
    key: "T"
    value {
      type: DT_FLOAT
    }
  }
}
node {
  name: "deepq_1/q_func/Flatten/flatten/Shape"
  op: "Shape"
  input: "deepq_1/q_func/convnet/Conv_2/Relu"
  attr {
    key: "T"
    value {
      type: DT_FLOAT
    }
  }
  attr {
    key: "out_type"
    value {
      type: DT_INT32
    }
  }
}
node {
  name: "deepq_1/q_func/Flatten/flatten/strided_slice/stack"
  op: "Const"
  attr {
    key: "dtype"
    value {
      type: DT_INT32
    }
  }
  attr {
    key: "value"
    value {
      tensor {
        dtype: DT_INT32
        tensor_shape {
          dim {
            size: 1
          }
        }
        int_val: 0
      }
    }
  }
}
node {
  name: "deepq_1/q_func/Flatten/flatten/strided_slice/stack_1"
  op: "Const"
  attr {
    key: "dtype"
    value {
      type: DT_INT32
    }
  }
  attr {
    key: "value"
    value {
      tensor {
        dtype: DT_INT32
        tensor_shape {
          dim {
            size: 1
          }
        }
        int_val: 1
      }
    }
  }
}
node {
  name: "deepq_1/q_func/Flatten/flatten/strided_slice/stack_2"
  op: "Const"
  attr {
    key: "dtype"
    value {
      type: DT_INT32
    }
  }
  attr {
    key: "value"
    value {
      tensor {
        dtype: DT_INT32
        tensor_shape {
          dim {
            size: 1
          }
        }
        int_val: 1
      }
    }
  }
}
node {
  name: "deepq_1/q_func/Flatten/flatten/strided_slice"
  op: "StridedSlice"
  input: "deepq_1/q_func/Flatten/flatten/Shape"
  input: "deepq_1/q_func/Flatten/flatten/strided_slice/stack"
  input: "deepq_1/q_func/Flatten/flatten/strided_slice/stack_1"
  input: "deepq_1/q_func/Flatten/flatten/strided_slice/stack_2"
  attr {
    key: "Index"
    value {
      type: DT_INT32
    }
  }
  attr {
    key: "T"
    value {
      type: DT_INT32
    }
  }
  attr {
    key: "begin_mask"
    value {
      i: 0
    }
  }
  attr {
    key: "ellipsis_mask"
    value {
      i: 0
    }
  }
  attr {
    key: "end_mask"
    value {
      i: 0
    }
  }
  attr {
    key: "new_axis_mask"
    value {
      i: 0
    }
  }
  attr {
    key: "shrink_axis_mask"
    value {
      i: 1
    }
  }
}
node {
  name: "deepq_1/q_func/Flatten/flatten/Reshape/shape/1"
  op: "Const"
  attr {
    key: "dtype"
    value {
      type: DT_INT32
    }
  }
  attr {
    key: "value"
    value {
      tensor {
        dtype: DT_INT32
        tensor_shape {
        }
        int_val: -1
      }
    }
  }
}
node {
  name: "deepq_1/q_func/Flatten/flatten/Reshape/shape"
  op: "Pack"
  input: "deepq_1/q_func/Flatten/flatten/strided_slice"
  input: "deepq_1/q_func/Flatten/flatten/Reshape/shape/1"
  attr {
    key: "N"
    value {
      i: 2
    }
  }
  attr {
    key: "T"
    value {
      type: DT_INT32
    }
  }
  attr {
    key: "axis"
    value {
      i: 0
    }
  }
}
node {
  name: "deepq_1/q_func/Flatten/flatten/Reshape"
  op: "Reshape"
  input: "deepq_1/q_func/convnet/Conv_2/Relu"
  input: "deepq_1/q_func/Flatten/flatten/Reshape/shape"
  attr {
    key: "T"
    value {
      type: DT_FLOAT
    }
  }
  attr {
    key: "Tshape"
    value {
      type: DT_INT32
    }
  }
}
node {
  name: "deepq_1/q_func/action_value/fully_connected/MatMul"
  op: "MatMul"
  input: "deepq_1/q_func/Flatten/flatten/Reshape"
  input: "deepq/q_func/action_value/fully_connected/weights/read"
  attr {
    key: "T"
    value {
      type: DT_FLOAT
    }
  }
  attr {
    key: "transpose_a"
    value {
      b: false
    }
  }
  attr {
    key: "transpose_b"
    value {
      b: false
    }
  }
}
node {
  name: "deepq_1/q_func/action_value/fully_connected/BiasAdd"
  op: "BiasAdd"
  input: "deepq_1/q_func/action_value/fully_connected/MatMul"
  input: "deepq/q_func/action_value/fully_connected/biases/read"
  attr {
    key: "T"
    value {
      type: DT_FLOAT
    }
  }
  attr {
    key: "data_format"
    value {
      s: "NHWC"
    }
  }
}
node {
  name: "deepq_1/q_func/action_value/Relu"
  op: "Relu"
  input: "deepq_1/q_func/action_value/fully_connected/BiasAdd"
  attr {
    key: "T"
    value {
      type: DT_FLOAT
    }
  }
}
node {
  name: "deepq_1/q_func/action_value/fully_connected_1/MatMul"
  op: "MatMul"
  input: "deepq_1/q_func/action_value/Relu"
  input: "deepq/q_func/action_value/fully_connected_1/weights/read"
  attr {
    key: "T"
    value {
      type: DT_FLOAT
    }
  }
  attr {
    key: "transpose_a"
    value {
      b: false
    }
  }
  attr {
    key: "transpose_b"
    value {
      b: false
    }
  }
}
node {
  name: "deepq_1/q_func/action_value/fully_connected_1/BiasAdd"
  op: "BiasAdd"
  input: "deepq_1/q_func/action_value/fully_connected_1/MatMul"
  input: "deepq/q_func/action_value/fully_connected_1/biases/read"
  attr {
    key: "T"
    value {
      type: DT_FLOAT
    }
  }
  attr {
    key: "data_format"
    value {
      s: "NHWC"
    }
  }
}
node {
  name: "deepq_1/q_func/state_value/fully_connected/MatMul"
  op: "MatMul"
  input: "deepq_1/q_func/Flatten/flatten/Reshape"
  input: "deepq/q_func/state_value/fully_connected/weights/read"
  attr {
    key: "T"
    value {
      type: DT_FLOAT
    }
  }
  attr {
    key: "transpose_a"
    value {
      b: false
    }
  }
  attr {
    key: "transpose_b"
    value {
      b: false
    }
  }
}
node {
  name: "deepq_1/q_func/state_value/fully_connected/BiasAdd"
  op: "BiasAdd"
  input: "deepq_1/q_func/state_value/fully_connected/MatMul"
  input: "deepq/q_func/state_value/fully_connected/biases/read"
  attr {
    key: "T"
    value {
      type: DT_FLOAT
    }
  }
  attr {
    key: "data_format"
    value {
      s: "NHWC"
    }
  }
}
node {
  name: "deepq_1/q_func/state_value/Relu"
  op: "Relu"
  input: "deepq_1/q_func/state_value/fully_connected/BiasAdd"
  attr {
    key: "T"
    value {
      type: DT_FLOAT
    }
  }
}
node {
  name: "deepq_1/q_func/state_value/fully_connected_1/MatMul"
  op: "MatMul"
  input: "deepq_1/q_func/state_value/Relu"
  input: "deepq/q_func/state_value/fully_connected_1/weights/read"
  attr {
    key: "T"
    value {
      type: DT_FLOAT
    }
  }
  attr {
    key: "transpose_a"
    value {
      b: false
    }
  }
  attr {
    key: "transpose_b"
    value {
      b: false
    }
  }
}
node {
  name: "deepq_1/q_func/state_value/fully_connected_1/BiasAdd"
  op: "BiasAdd"
  input: "deepq_1/q_func/state_value/fully_connected_1/MatMul"
  input: "deepq/q_func/state_value/fully_connected_1/biases/read"
  attr {
    key: "T"
    value {
      type: DT_FLOAT
    }
  }
  attr {
    key: "data_format"
    value {
      s: "NHWC"
    }
  }
}
node {
  name: "deepq_1/q_func/Mean/reduction_indices"
  op: "Const"
  attr {
    key: "dtype"
    value {
      type: DT_INT32
    }
  }
  attr {
    key: "value"
    value {
      tensor {
        dtype: DT_INT32
        tensor_shape {
        }
        int_val: 1
      }
    }
  }
}
node {
  name: "deepq_1/q_func/Mean"
  op: "Mean"
  input: "deepq_1/q_func/action_value/fully_connected_1/BiasAdd"
  input: "deepq_1/q_func/Mean/reduction_indices"
  attr {
    key: "T"
    value {
      type: DT_FLOAT
    }
  }
  attr {
    key: "Tidx"
    value {
      type: DT_INT32
    }
  }
  attr {
    key: "keep_dims"
    value {
      b: false
    }
  }
}
node {
  name: "deepq_1/q_func/ExpandDims/dim"
  op: "Const"
  attr {
    key: "dtype"
    value {
      type: DT_INT32
    }
  }
  attr {
    key: "value"
    value {
      tensor {
        dtype: DT_INT32
        tensor_shape {
        }
        int_val: 1
      }
    }
  }
}
node {
  name: "deepq_1/q_func/ExpandDims"
  op: "ExpandDims"
  input: "deepq_1/q_func/Mean"
  input: "deepq_1/q_func/ExpandDims/dim"
  attr {
    key: "T"
    value {
      type: DT_FLOAT
    }
  }
  attr {
    key: "Tdim"
    value {
      type: DT_INT32
    }
  }
}
node {
  name: "deepq_1/q_func/sub"
  op: "Sub"
  input: "deepq_1/q_func/action_value/fully_connected_1/BiasAdd"
  input: "deepq_1/q_func/ExpandDims"
  attr {
    key: "T"
    value {
      type: DT_FLOAT
    }
  }
}
node {
  name: "deepq_1/q_func/add"
  op: "Add"
  input: "deepq_1/q_func/state_value/fully_connected_1/BiasAdd"
  input: "deepq_1/q_func/sub"
  attr {
    key: "T"
    value {
      type: DT_FLOAT
    }
  }
}
node {
  name: "deepq_1/target_q_func/truediv/y"
  op: "Const"
  attr {
    key: "dtype"
    value {
      type: DT_FLOAT
    }
  }
  attr {
    key: "value"
    value {
      tensor {
        dtype: DT_FLOAT
        tensor_shape {
        }
        float_val: 255.0
      }
    }
  }
}
node {
  name: "deepq_1/target_q_func/truediv"
  op: "RealDiv"
  input: "deepq_1/obs_tp1"
  input: "deepq_1/target_q_func/truediv/y"
  attr {
    key: "T"
    value {
      type: DT_FLOAT
    }
  }
}
node {
  name: "deepq/target_q_func/convnet/Conv/weights/Initializer/random_uniform/shape"
  op: "Const"
  attr {
    key: "_class"
    value {
      list {
        s: "loc:@deepq/target_q_func/convnet/Conv/weights"
      }
    }
  }
  attr {
    key: "dtype"
    value {
      type: DT_INT32
    }
  }
  attr {
    key: "value"
    value {
      tensor {
        dtype: DT_INT32
        tensor_shape {
          dim {
            size: 4
          }
        }
        tensor_content: "\010\000\000\000\010\000\000\000\004\000\000\000 \000\000\000"
      }
    }
  }
}
node {
  name: "deepq/target_q_func/convnet/Conv/weights/Initializer/random_uniform/min"
  op: "Const"
  attr {
    key: "_class"
    value {
      list {
        s: "loc:@deepq/target_q_func/convnet/Conv/weights"
      }
    }
  }
  attr {
    key: "dtype"
    value {
      type: DT_FLOAT
    }
  }
  attr {
    key: "value"
    value {
      tensor {
        dtype: DT_FLOAT
        tensor_shape {
        }
        float_val: -0.05103103816509247
      }
    }
  }
}
node {
  name: "deepq/target_q_func/convnet/Conv/weights/Initializer/random_uniform/max"
  op: "Const"
  attr {
    key: "_class"
    value {
      list {
        s: "loc:@deepq/target_q_func/convnet/Conv/weights"
      }
    }
  }
  attr {
    key: "dtype"
    value {
      type: DT_FLOAT
    }
  }
  attr {
    key: "value"
    value {
      tensor {
        dtype: DT_FLOAT
        tensor_shape {
        }
        float_val: 0.05103103816509247
      }
    }
  }
}
node {
  name: "deepq/target_q_func/convnet/Conv/weights/Initializer/random_uniform/RandomUniform"
  op: "RandomUniform"
  input: "deepq/target_q_func/convnet/Conv/weights/Initializer/random_uniform/shape"
  attr {
    key: "T"
    value {
      type: DT_INT32
    }
  }
  attr {
    key: "_class"
    value {
      list {
        s: "loc:@deepq/target_q_func/convnet/Conv/weights"
      }
    }
  }
  attr {
    key: "dtype"
    value {
      type: DT_FLOAT
    }
  }
  attr {
    key: "seed"
    value {
      i: 0
    }
  }
  attr {
    key: "seed2"
    value {
      i: 0
    }
  }
}
node {
  name: "deepq/target_q_func/convnet/Conv/weights/Initializer/random_uniform/sub"
  op: "Sub"
  input: "deepq/target_q_func/convnet/Conv/weights/Initializer/random_uniform/max"
  input: "deepq/target_q_func/convnet/Conv/weights/Initializer/random_uniform/min"
  attr {
    key: "T"
    value {
      type: DT_FLOAT
    }
  }
  attr {
    key: "_class"
    value {
      list {
        s: "loc:@deepq/target_q_func/convnet/Conv/weights"
      }
    }
  }
}
node {
  name: "deepq/target_q_func/convnet/Conv/weights/Initializer/random_uniform/mul"
  op: "Mul"
  input: "deepq/target_q_func/convnet/Conv/weights/Initializer/random_uniform/RandomUniform"
  input: "deepq/target_q_func/convnet/Conv/weights/Initializer/random_uniform/sub"
  attr {
    key: "T"
    value {
      type: DT_FLOAT
    }
  }
  attr {
    key: "_class"
    value {
      list {
        s: "loc:@deepq/target_q_func/convnet/Conv/weights"
      }
    }
  }
}
node {
  name: "deepq/target_q_func/convnet/Conv/weights/Initializer/random_uniform"
  op: "Add"
  input: "deepq/target_q_func/convnet/Conv/weights/Initializer/random_uniform/mul"
  input: "deepq/target_q_func/convnet/Conv/weights/Initializer/random_uniform/min"
  attr {
    key: "T"
    value {
      type: DT_FLOAT
    }
  }
  attr {
    key: "_class"
    value {
      list {
        s: "loc:@deepq/target_q_func/convnet/Conv/weights"
      }
    }
  }
}
node {
  name: "deepq/target_q_func/convnet/Conv/weights"
  op: "VariableV2"
  attr {
    key: "_class"
    value {
      list {
        s: "loc:@deepq/target_q_func/convnet/Conv/weights"
      }
    }
  }
  attr {
    key: "container"
    value {
      s: ""
    }
  }
  attr {
    key: "dtype"
    value {
      type: DT_FLOAT
    }
  }
  attr {
    key: "shape"
    value {
      shape {
        dim {
          size: 8
        }
        dim {
          size: 8
        }
        dim {
          size: 4
        }
        dim {
          size: 32
        }
      }
    }
  }
  attr {
    key: "shared_name"
    value {
      s: ""
    }
  }
}
node {
  name: "deepq/target_q_func/convnet/Conv/weights/Assign"
  op: "Assign"
  input: "deepq/target_q_func/convnet/Conv/weights"
  input: "deepq/target_q_func/convnet/Conv/weights/Initializer/random_uniform"
  attr {
    key: "T"
    value {
      type: DT_FLOAT
    }
  }
  attr {
    key: "_class"
    value {
      list {
        s: "loc:@deepq/target_q_func/convnet/Conv/weights"
      }
    }
  }
  attr {
    key: "use_locking"
    value {
      b: true
    }
  }
  attr {
    key: "validate_shape"
    value {
      b: true
    }
  }
}
node {
  name: "deepq/target_q_func/convnet/Conv/weights/read"
  op: "Identity"
  input: "deepq/target_q_func/convnet/Conv/weights"
  attr {
    key: "T"
    value {
      type: DT_FLOAT
    }
  }
  attr {
    key: "_class"
    value {
      list {
        s: "loc:@deepq/target_q_func/convnet/Conv/weights"
      }
    }
  }
}
node {
  name: "deepq/target_q_func/convnet/Conv/biases/Initializer/zeros"
  op: "Const"
  attr {
    key: "_class"
    value {
      list {
        s: "loc:@deepq/target_q_func/convnet/Conv/biases"
      }
    }
  }
  attr {
    key: "dtype"
    value {
      type: DT_FLOAT
    }
  }
  attr {
    key: "value"
    value {
      tensor {
        dtype: DT_FLOAT
        tensor_shape {
          dim {
            size: 32
          }
        }
        float_val: 0.0
      }
    }
  }
}
node {
  name: "deepq/target_q_func/convnet/Conv/biases"
  op: "VariableV2"
  attr {
    key: "_class"
    value {
      list {
        s: "loc:@deepq/target_q_func/convnet/Conv/biases"
      }
    }
  }
  attr {
    key: "container"
    value {
      s: ""
    }
  }
  attr {
    key: "dtype"
    value {
      type: DT_FLOAT
    }
  }
  attr {
    key: "shape"
    value {
      shape {
        dim {
          size: 32
        }
      }
    }
  }
  attr {
    key: "shared_name"
    value {
      s: ""
    }
  }
}
node {
  name: "deepq/target_q_func/convnet/Conv/biases/Assign"
  op: "Assign"
  input: "deepq/target_q_func/convnet/Conv/biases"
  input: "deepq/target_q_func/convnet/Conv/biases/Initializer/zeros"
  attr {
    key: "T"
    value {
      type: DT_FLOAT
    }
  }
  attr {
    key: "_class"
    value {
      list {
        s: "loc:@deepq/target_q_func/convnet/Conv/biases"
      }
    }
  }
  attr {
    key: "use_locking"
    value {
      b: true
    }
  }
  attr {
    key: "validate_shape"
    value {
      b: true
    }
  }
}
node {
  name: "deepq/target_q_func/convnet/Conv/biases/read"
  op: "Identity"
  input: "deepq/target_q_func/convnet/Conv/biases"
  attr {
    key: "T"
    value {
      type: DT_FLOAT
    }
  }
  attr {
    key: "_class"
    value {
      list {
        s: "loc:@deepq/target_q_func/convnet/Conv/biases"
      }
    }
  }
}
node {
  name: "deepq_1/target_q_func/convnet/Conv/dilation_rate"
  op: "Const"
  attr {
    key: "dtype"
    value {
      type: DT_INT32
    }
  }
  attr {
    key: "value"
    value {
      tensor {
        dtype: DT_INT32
        tensor_shape {
          dim {
            size: 2
          }
        }
        tensor_content: "\001\000\000\000\001\000\000\000"
      }
    }
  }
}
node {
  name: "deepq_1/target_q_func/convnet/Conv/Conv2D"
  op: "Conv2D"
  input: "deepq_1/target_q_func/truediv"
  input: "deepq/target_q_func/convnet/Conv/weights/read"
  attr {
    key: "T"
    value {
      type: DT_FLOAT
    }
  }
  attr {
    key: "data_format"
    value {
      s: "NHWC"
    }
  }
  attr {
    key: "dilations"
    value {
      list {
        i: 1
        i: 1
        i: 1
        i: 1
      }
    }
  }
  attr {
    key: "padding"
    value {
      s: "SAME"
    }
  }
  attr {
    key: "strides"
    value {
      list {
        i: 1
        i: 4
        i: 4
        i: 1
      }
    }
  }
  attr {
    key: "use_cudnn_on_gpu"
    value {
      b: true
    }
  }
}
node {
  name: "deepq_1/target_q_func/convnet/Conv/BiasAdd"
  op: "BiasAdd"
  input: "deepq_1/target_q_func/convnet/Conv/Conv2D"
  input: "deepq/target_q_func/convnet/Conv/biases/read"
  attr {
    key: "T"
    value {
      type: DT_FLOAT
    }
  }
  attr {
    key: "data_format"
    value {
      s: "NHWC"
    }
  }
}
node {
  name: "deepq_1/target_q_func/convnet/Conv/Relu"
  op: "Relu"
  input: "deepq_1/target_q_func/convnet/Conv/BiasAdd"
  attr {
    key: "T"
    value {
      type: DT_FLOAT
    }
  }
}
node {
  name: "deepq/target_q_func/convnet/Conv_1/weights/Initializer/random_uniform/shape"
  op: "Const"
  attr {
    key: "_class"
    value {
      list {
        s: "loc:@deepq/target_q_func/convnet/Conv_1/weights"
      }
    }
  }
  attr {
    key: "dtype"
    value {
      type: DT_INT32
    }
  }
  attr {
    key: "value"
    value {
      tensor {
        dtype: DT_INT32
        tensor_shape {
          dim {
            size: 4
          }
        }
        tensor_content: "\004\000\000\000\004\000\000\000 \000\000\000@\000\000\000"
      }
    }
  }
}
node {
  name: "deepq/target_q_func/convnet/Conv_1/weights/Initializer/random_uniform/min"
  op: "Const"
  attr {
    key: "_class"
    value {
      list {
        s: "loc:@deepq/target_q_func/convnet/Conv_1/weights"
      }
    }
  }
  attr {
    key: "dtype"
    value {
      type: DT_FLOAT
    }
  }
  attr {
    key: "value"
    value {
      tensor {
        dtype: DT_FLOAT
        tensor_shape {
        }
        float_val: -0.0625
      }
    }
  }
}
node {
  name: "deepq/target_q_func/convnet/Conv_1/weights/Initializer/random_uniform/max"
  op: "Const"
  attr {
    key: "_class"
    value {
      list {
        s: "loc:@deepq/target_q_func/convnet/Conv_1/weights"
      }
    }
  }
  attr {
    key: "dtype"
    value {
      type: DT_FLOAT
    }
  }
  attr {
    key: "value"
    value {
      tensor {
        dtype: DT_FLOAT
        tensor_shape {
        }
        float_val: 0.0625
      }
    }
  }
}
node {
  name: "deepq/target_q_func/convnet/Conv_1/weights/Initializer/random_uniform/RandomUniform"
  op: "RandomUniform"
  input: "deepq/target_q_func/convnet/Conv_1/weights/Initializer/random_uniform/shape"
  attr {
    key: "T"
    value {
      type: DT_INT32
    }
  }
  attr {
    key: "_class"
    value {
      list {
        s: "loc:@deepq/target_q_func/convnet/Conv_1/weights"
      }
    }
  }
  attr {
    key: "dtype"
    value {
      type: DT_FLOAT
    }
  }
  attr {
    key: "seed"
    value {
      i: 0
    }
  }
  attr {
    key: "seed2"
    value {
      i: 0
    }
  }
}
node {
  name: "deepq/target_q_func/convnet/Conv_1/weights/Initializer/random_uniform/sub"
  op: "Sub"
  input: "deepq/target_q_func/convnet/Conv_1/weights/Initializer/random_uniform/max"
  input: "deepq/target_q_func/convnet/Conv_1/weights/Initializer/random_uniform/min"
  attr {
    key: "T"
    value {
      type: DT_FLOAT
    }
  }
  attr {
    key: "_class"
    value {
      list {
        s: "loc:@deepq/target_q_func/convnet/Conv_1/weights"
      }
    }
  }
}
node {
  name: "deepq/target_q_func/convnet/Conv_1/weights/Initializer/random_uniform/mul"
  op: "Mul"
  input: "deepq/target_q_func/convnet/Conv_1/weights/Initializer/random_uniform/RandomUniform"
  input: "deepq/target_q_func/convnet/Conv_1/weights/Initializer/random_uniform/sub"
  attr {
    key: "T"
    value {
      type: DT_FLOAT
    }
  }
  attr {
    key: "_class"
    value {
      list {
        s: "loc:@deepq/target_q_func/convnet/Conv_1/weights"
      }
    }
  }
}
node {
  name: "deepq/target_q_func/convnet/Conv_1/weights/Initializer/random_uniform"
  op: "Add"
  input: "deepq/target_q_func/convnet/Conv_1/weights/Initializer/random_uniform/mul"
  input: "deepq/target_q_func/convnet/Conv_1/weights/Initializer/random_uniform/min"
  attr {
    key: "T"
    value {
      type: DT_FLOAT
    }
  }
  attr {
    key: "_class"
    value {
      list {
        s: "loc:@deepq/target_q_func/convnet/Conv_1/weights"
      }
    }
  }
}
node {
  name: "deepq/target_q_func/convnet/Conv_1/weights"
  op: "VariableV2"
  attr {
    key: "_class"
    value {
      list {
        s: "loc:@deepq/target_q_func/convnet/Conv_1/weights"
      }
    }
  }
  attr {
    key: "container"
    value {
      s: ""
    }
  }
  attr {
    key: "dtype"
    value {
      type: DT_FLOAT
    }
  }
  attr {
    key: "shape"
    value {
      shape {
        dim {
          size: 4
        }
        dim {
          size: 4
        }
        dim {
          size: 32
        }
        dim {
          size: 64
        }
      }
    }
  }
  attr {
    key: "shared_name"
    value {
      s: ""
    }
  }
}
node {
  name: "deepq/target_q_func/convnet/Conv_1/weights/Assign"
  op: "Assign"
  input: "deepq/target_q_func/convnet/Conv_1/weights"
  input: "deepq/target_q_func/convnet/Conv_1/weights/Initializer/random_uniform"
  attr {
    key: "T"
    value {
      type: DT_FLOAT
    }
  }
  attr {
    key: "_class"
    value {
      list {
        s: "loc:@deepq/target_q_func/convnet/Conv_1/weights"
      }
    }
  }
  attr {
    key: "use_locking"
    value {
      b: true
    }
  }
  attr {
    key: "validate_shape"
    value {
      b: true
    }
  }
}
node {
  name: "deepq/target_q_func/convnet/Conv_1/weights/read"
  op: "Identity"
  input: "deepq/target_q_func/convnet/Conv_1/weights"
  attr {
    key: "T"
    value {
      type: DT_FLOAT
    }
  }
  attr {
    key: "_class"
    value {
      list {
        s: "loc:@deepq/target_q_func/convnet/Conv_1/weights"
      }
    }
  }
}
node {
  name: "deepq/target_q_func/convnet/Conv_1/biases/Initializer/zeros"
  op: "Const"
  attr {
    key: "_class"
    value {
      list {
        s: "loc:@deepq/target_q_func/convnet/Conv_1/biases"
      }
    }
  }
  attr {
    key: "dtype"
    value {
      type: DT_FLOAT
    }
  }
  attr {
    key: "value"
    value {
      tensor {
        dtype: DT_FLOAT
        tensor_shape {
          dim {
            size: 64
          }
        }
        float_val: 0.0
      }
    }
  }
}
node {
  name: "deepq/target_q_func/convnet/Conv_1/biases"
  op: "VariableV2"
  attr {
    key: "_class"
    value {
      list {
        s: "loc:@deepq/target_q_func/convnet/Conv_1/biases"
      }
    }
  }
  attr {
    key: "container"
    value {
      s: ""
    }
  }
  attr {
    key: "dtype"
    value {
      type: DT_FLOAT
    }
  }
  attr {
    key: "shape"
    value {
      shape {
        dim {
          size: 64
        }
      }
    }
  }
  attr {
    key: "shared_name"
    value {
      s: ""
    }
  }
}
node {
  name: "deepq/target_q_func/convnet/Conv_1/biases/Assign"
  op: "Assign"
  input: "deepq/target_q_func/convnet/Conv_1/biases"
  input: "deepq/target_q_func/convnet/Conv_1/biases/Initializer/zeros"
  attr {
    key: "T"
    value {
      type: DT_FLOAT
    }
  }
  attr {
    key: "_class"
    value {
      list {
        s: "loc:@deepq/target_q_func/convnet/Conv_1/biases"
      }
    }
  }
  attr {
    key: "use_locking"
    value {
      b: true
    }
  }
  attr {
    key: "validate_shape"
    value {
      b: true
    }
  }
}
node {
  name: "deepq/target_q_func/convnet/Conv_1/biases/read"
  op: "Identity"
  input: "deepq/target_q_func/convnet/Conv_1/biases"
  attr {
    key: "T"
    value {
      type: DT_FLOAT
    }
  }
  attr {
    key: "_class"
    value {
      list {
        s: "loc:@deepq/target_q_func/convnet/Conv_1/biases"
      }
    }
  }
}
node {
  name: "deepq_1/target_q_func/convnet/Conv_1/dilation_rate"
  op: "Const"
  attr {
    key: "dtype"
    value {
      type: DT_INT32
    }
  }
  attr {
    key: "value"
    value {
      tensor {
        dtype: DT_INT32
        tensor_shape {
          dim {
            size: 2
          }
        }
        tensor_content: "\001\000\000\000\001\000\000\000"
      }
    }
  }
}
node {
  name: "deepq_1/target_q_func/convnet/Conv_1/Conv2D"
  op: "Conv2D"
  input: "deepq_1/target_q_func/convnet/Conv/Relu"
  input: "deepq/target_q_func/convnet/Conv_1/weights/read"
  attr {
    key: "T"
    value {
      type: DT_FLOAT
    }
  }
  attr {
    key: "data_format"
    value {
      s: "NHWC"
    }
  }
  attr {
    key: "dilations"
    value {
      list {
        i: 1
        i: 1
        i: 1
        i: 1
      }
    }
  }
  attr {
    key: "padding"
    value {
      s: "SAME"
    }
  }
  attr {
    key: "strides"
    value {
      list {
        i: 1
        i: 2
        i: 2
        i: 1
      }
    }
  }
  attr {
    key: "use_cudnn_on_gpu"
    value {
      b: true
    }
  }
}
node {
  name: "deepq_1/target_q_func/convnet/Conv_1/BiasAdd"
  op: "BiasAdd"
  input: "deepq_1/target_q_func/convnet/Conv_1/Conv2D"
  input: "deepq/target_q_func/convnet/Conv_1/biases/read"
  attr {
    key: "T"
    value {
      type: DT_FLOAT
    }
  }
  attr {
    key: "data_format"
    value {
      s: "NHWC"
    }
  }
}
node {
  name: "deepq_1/target_q_func/convnet/Conv_1/Relu"
  op: "Relu"
  input: "deepq_1/target_q_func/convnet/Conv_1/BiasAdd"
  attr {
    key: "T"
    value {
      type: DT_FLOAT
    }
  }
}
node {
  name: "deepq/target_q_func/convnet/Conv_2/weights/Initializer/random_uniform/shape"
  op: "Const"
  attr {
    key: "_class"
    value {
      list {
        s: "loc:@deepq/target_q_func/convnet/Conv_2/weights"
      }
    }
  }
  attr {
    key: "dtype"
    value {
      type: DT_INT32
    }
  }
  attr {
    key: "value"
    value {
      tensor {
        dtype: DT_INT32
        tensor_shape {
          dim {
            size: 4
          }
        }
        tensor_content: "\003\000\000\000\003\000\000\000@\000\000\000@\000\000\000"
      }
    }
  }
}
node {
  name: "deepq/target_q_func/convnet/Conv_2/weights/Initializer/random_uniform/min"
  op: "Const"
  attr {
    key: "_class"
    value {
      list {
        s: "loc:@deepq/target_q_func/convnet/Conv_2/weights"
      }
    }
  }
  attr {
    key: "dtype"
    value {
      type: DT_FLOAT
    }
  }
  attr {
    key: "value"
    value {
      tensor {
        dtype: DT_FLOAT
        tensor_shape {
        }
        float_val: -0.07216878235340118
      }
    }
  }
}
node {
  name: "deepq/target_q_func/convnet/Conv_2/weights/Initializer/random_uniform/max"
  op: "Const"
  attr {
    key: "_class"
    value {
      list {
        s: "loc:@deepq/target_q_func/convnet/Conv_2/weights"
      }
    }
  }
  attr {
    key: "dtype"
    value {
      type: DT_FLOAT
    }
  }
  attr {
    key: "value"
    value {
      tensor {
        dtype: DT_FLOAT
        tensor_shape {
        }
        float_val: 0.07216878235340118
      }
    }
  }
}
node {
  name: "deepq/target_q_func/convnet/Conv_2/weights/Initializer/random_uniform/RandomUniform"
  op: "RandomUniform"
  input: "deepq/target_q_func/convnet/Conv_2/weights/Initializer/random_uniform/shape"
  attr {
    key: "T"
    value {
      type: DT_INT32
    }
  }
  attr {
    key: "_class"
    value {
      list {
        s: "loc:@deepq/target_q_func/convnet/Conv_2/weights"
      }
    }
  }
  attr {
    key: "dtype"
    value {
      type: DT_FLOAT
    }
  }
  attr {
    key: "seed"
    value {
      i: 0
    }
  }
  attr {
    key: "seed2"
    value {
      i: 0
    }
  }
}
node {
  name: "deepq/target_q_func/convnet/Conv_2/weights/Initializer/random_uniform/sub"
  op: "Sub"
  input: "deepq/target_q_func/convnet/Conv_2/weights/Initializer/random_uniform/max"
  input: "deepq/target_q_func/convnet/Conv_2/weights/Initializer/random_uniform/min"
  attr {
    key: "T"
    value {
      type: DT_FLOAT
    }
  }
  attr {
    key: "_class"
    value {
      list {
        s: "loc:@deepq/target_q_func/convnet/Conv_2/weights"
      }
    }
  }
}
node {
  name: "deepq/target_q_func/convnet/Conv_2/weights/Initializer/random_uniform/mul"
  op: "Mul"
  input: "deepq/target_q_func/convnet/Conv_2/weights/Initializer/random_uniform/RandomUniform"
  input: "deepq/target_q_func/convnet/Conv_2/weights/Initializer/random_uniform/sub"
  attr {
    key: "T"
    value {
      type: DT_FLOAT
    }
  }
  attr {
    key: "_class"
    value {
      list {
        s: "loc:@deepq/target_q_func/convnet/Conv_2/weights"
      }
    }
  }
}
node {
  name: "deepq/target_q_func/convnet/Conv_2/weights/Initializer/random_uniform"
  op: "Add"
  input: "deepq/target_q_func/convnet/Conv_2/weights/Initializer/random_uniform/mul"
  input: "deepq/target_q_func/convnet/Conv_2/weights/Initializer/random_uniform/min"
  attr {
    key: "T"
    value {
      type: DT_FLOAT
    }
  }
  attr {
    key: "_class"
    value {
      list {
        s: "loc:@deepq/target_q_func/convnet/Conv_2/weights"
      }
    }
  }
}
node {
  name: "deepq/target_q_func/convnet/Conv_2/weights"
  op: "VariableV2"
  attr {
    key: "_class"
    value {
      list {
        s: "loc:@deepq/target_q_func/convnet/Conv_2/weights"
      }
    }
  }
  attr {
    key: "container"
    value {
      s: ""
    }
  }
  attr {
    key: "dtype"
    value {
      type: DT_FLOAT
    }
  }
  attr {
    key: "shape"
    value {
      shape {
        dim {
          size: 3
        }
        dim {
          size: 3
        }
        dim {
          size: 64
        }
        dim {
          size: 64
        }
      }
    }
  }
  attr {
    key: "shared_name"
    value {
      s: ""
    }
  }
}
node {
  name: "deepq/target_q_func/convnet/Conv_2/weights/Assign"
  op: "Assign"
  input: "deepq/target_q_func/convnet/Conv_2/weights"
  input: "deepq/target_q_func/convnet/Conv_2/weights/Initializer/random_uniform"
  attr {
    key: "T"
    value {
      type: DT_FLOAT
    }
  }
  attr {
    key: "_class"
    value {
      list {
        s: "loc:@deepq/target_q_func/convnet/Conv_2/weights"
      }
    }
  }
  attr {
    key: "use_locking"
    value {
      b: true
    }
  }
  attr {
    key: "validate_shape"
    value {
      b: true
    }
  }
}
node {
  name: "deepq/target_q_func/convnet/Conv_2/weights/read"
  op: "Identity"
  input: "deepq/target_q_func/convnet/Conv_2/weights"
  attr {
    key: "T"
    value {
      type: DT_FLOAT
    }
  }
  attr {
    key: "_class"
    value {
      list {
        s: "loc:@deepq/target_q_func/convnet/Conv_2/weights"
      }
    }
  }
}
node {
  name: "deepq/target_q_func/convnet/Conv_2/biases/Initializer/zeros"
  op: "Const"
  attr {
    key: "_class"
    value {
      list {
        s: "loc:@deepq/target_q_func/convnet/Conv_2/biases"
      }
    }
  }
  attr {
    key: "dtype"
    value {
      type: DT_FLOAT
    }
  }
  attr {
    key: "value"
    value {
      tensor {
        dtype: DT_FLOAT
        tensor_shape {
          dim {
            size: 64
          }
        }
        float_val: 0.0
      }
    }
  }
}
node {
  name: "deepq/target_q_func/convnet/Conv_2/biases"
  op: "VariableV2"
  attr {
    key: "_class"
    value {
      list {
        s: "loc:@deepq/target_q_func/convnet/Conv_2/biases"
      }
    }
  }
  attr {
    key: "container"
    value {
      s: ""
    }
  }
  attr {
    key: "dtype"
    value {
      type: DT_FLOAT
    }
  }
  attr {
    key: "shape"
    value {
      shape {
        dim {
          size: 64
        }
      }
    }
  }
  attr {
    key: "shared_name"
    value {
      s: ""
    }
  }
}
node {
  name: "deepq/target_q_func/convnet/Conv_2/biases/Assign"
  op: "Assign"
  input: "deepq/target_q_func/convnet/Conv_2/biases"
  input: "deepq/target_q_func/convnet/Conv_2/biases/Initializer/zeros"
  attr {
    key: "T"
    value {
      type: DT_FLOAT
    }
  }
  attr {
    key: "_class"
    value {
      list {
        s: "loc:@deepq/target_q_func/convnet/Conv_2/biases"
      }
    }
  }
  attr {
    key: "use_locking"
    value {
      b: true
    }
  }
  attr {
    key: "validate_shape"
    value {
      b: true
    }
  }
}
node {
  name: "deepq/target_q_func/convnet/Conv_2/biases/read"
  op: "Identity"
  input: "deepq/target_q_func/convnet/Conv_2/biases"
  attr {
    key: "T"
    value {
      type: DT_FLOAT
    }
  }
  attr {
    key: "_class"
    value {
      list {
        s: "loc:@deepq/target_q_func/convnet/Conv_2/biases"
      }
    }
  }
}
node {
  name: "deepq_1/target_q_func/convnet/Conv_2/dilation_rate"
  op: "Const"
  attr {
    key: "dtype"
    value {
      type: DT_INT32
    }
  }
  attr {
    key: "value"
    value {
      tensor {
        dtype: DT_INT32
        tensor_shape {
          dim {
            size: 2
          }
        }
        tensor_content: "\001\000\000\000\001\000\000\000"
      }
    }
  }
}
node {
  name: "deepq_1/target_q_func/convnet/Conv_2/Conv2D"
  op: "Conv2D"
  input: "deepq_1/target_q_func/convnet/Conv_1/Relu"
  input: "deepq/target_q_func/convnet/Conv_2/weights/read"
  attr {
    key: "T"
    value {
      type: DT_FLOAT
    }
  }
  attr {
    key: "data_format"
    value {
      s: "NHWC"
    }
  }
  attr {
    key: "dilations"
    value {
      list {
        i: 1
        i: 1
        i: 1
        i: 1
      }
    }
  }
  attr {
    key: "padding"
    value {
      s: "SAME"
    }
  }
  attr {
    key: "strides"
    value {
      list {
        i: 1
        i: 1
        i: 1
        i: 1
      }
    }
  }
  attr {
    key: "use_cudnn_on_gpu"
    value {
      b: true
    }
  }
}
node {
  name: "deepq_1/target_q_func/convnet/Conv_2/BiasAdd"
  op: "BiasAdd"
  input: "deepq_1/target_q_func/convnet/Conv_2/Conv2D"
  input: "deepq/target_q_func/convnet/Conv_2/biases/read"
  attr {
    key: "T"
    value {
      type: DT_FLOAT
    }
  }
  attr {
    key: "data_format"
    value {
      s: "NHWC"
    }
  }
}
node {
  name: "deepq_1/target_q_func/convnet/Conv_2/Relu"
  op: "Relu"
  input: "deepq_1/target_q_func/convnet/Conv_2/BiasAdd"
  attr {
    key: "T"
    value {
      type: DT_FLOAT
    }
  }
}
node {
  name: "deepq_1/target_q_func/Flatten/flatten/Shape"
  op: "Shape"
  input: "deepq_1/target_q_func/convnet/Conv_2/Relu"
  attr {
    key: "T"
    value {
      type: DT_FLOAT
    }
  }
  attr {
    key: "out_type"
    value {
      type: DT_INT32
    }
  }
}
node {
  name: "deepq_1/target_q_func/Flatten/flatten/strided_slice/stack"
  op: "Const"
  attr {
    key: "dtype"
    value {
      type: DT_INT32
    }
  }
  attr {
    key: "value"
    value {
      tensor {
        dtype: DT_INT32
        tensor_shape {
          dim {
            size: 1
          }
        }
        int_val: 0
      }
    }
  }
}
node {
  name: "deepq_1/target_q_func/Flatten/flatten/strided_slice/stack_1"
  op: "Const"
  attr {
    key: "dtype"
    value {
      type: DT_INT32
    }
  }
  attr {
    key: "value"
    value {
      tensor {
        dtype: DT_INT32
        tensor_shape {
          dim {
            size: 1
          }
        }
        int_val: 1
      }
    }
  }
}
node {
  name: "deepq_1/target_q_func/Flatten/flatten/strided_slice/stack_2"
  op: "Const"
  attr {
    key: "dtype"
    value {
      type: DT_INT32
    }
  }
  attr {
    key: "value"
    value {
      tensor {
        dtype: DT_INT32
        tensor_shape {
          dim {
            size: 1
          }
        }
        int_val: 1
      }
    }
  }
}
node {
  name: "deepq_1/target_q_func/Flatten/flatten/strided_slice"
  op: "StridedSlice"
  input: "deepq_1/target_q_func/Flatten/flatten/Shape"
  input: "deepq_1/target_q_func/Flatten/flatten/strided_slice/stack"
  input: "deepq_1/target_q_func/Flatten/flatten/strided_slice/stack_1"
  input: "deepq_1/target_q_func/Flatten/flatten/strided_slice/stack_2"
  attr {
    key: "Index"
    value {
      type: DT_INT32
    }
  }
  attr {
    key: "T"
    value {
      type: DT_INT32
    }
  }
  attr {
    key: "begin_mask"
    value {
      i: 0
    }
  }
  attr {
    key: "ellipsis_mask"
    value {
      i: 0
    }
  }
  attr {
    key: "end_mask"
    value {
      i: 0
    }
  }
  attr {
    key: "new_axis_mask"
    value {
      i: 0
    }
  }
  attr {
    key: "shrink_axis_mask"
    value {
      i: 1
    }
  }
}
node {
  name: "deepq_1/target_q_func/Flatten/flatten/Reshape/shape/1"
  op: "Const"
  attr {
    key: "dtype"
    value {
      type: DT_INT32
    }
  }
  attr {
    key: "value"
    value {
      tensor {
        dtype: DT_INT32
        tensor_shape {
        }
        int_val: -1
      }
    }
  }
}
node {
  name: "deepq_1/target_q_func/Flatten/flatten/Reshape/shape"
  op: "Pack"
  input: "deepq_1/target_q_func/Flatten/flatten/strided_slice"
  input: "deepq_1/target_q_func/Flatten/flatten/Reshape/shape/1"
  attr {
    key: "N"
    value {
      i: 2
    }
  }
  attr {
    key: "T"
    value {
      type: DT_INT32
    }
  }
  attr {
    key: "axis"
    value {
      i: 0
    }
  }
}
node {
  name: "deepq_1/target_q_func/Flatten/flatten/Reshape"
  op: "Reshape"
  input: "deepq_1/target_q_func/convnet/Conv_2/Relu"
  input: "deepq_1/target_q_func/Flatten/flatten/Reshape/shape"
  attr {
    key: "T"
    value {
      type: DT_FLOAT
    }
  }
  attr {
    key: "Tshape"
    value {
      type: DT_INT32
    }
  }
}
node {
  name: "deepq/target_q_func/action_value/fully_connected/weights/Initializer/random_uniform/shape"
  op: "Const"
  attr {
    key: "_class"
    value {
      list {
        s: "loc:@deepq/target_q_func/action_value/fully_connected/weights"
      }
    }
  }
  attr {
    key: "dtype"
    value {
      type: DT_INT32
    }
  }
  attr {
    key: "value"
    value {
      tensor {
        dtype: DT_INT32
        tensor_shape {
          dim {
            size: 2
          }
        }
        tensor_content: "@\036\000\000\000\001\000\000"
      }
    }
  }
}
node {
  name: "deepq/target_q_func/action_value/fully_connected/weights/Initializer/random_uniform/min"
  op: "Const"
  attr {
    key: "_class"
    value {
      list {
        s: "loc:@deepq/target_q_func/action_value/fully_connected/weights"
      }
    }
  }
  attr {
    key: "dtype"
    value {
      type: DT_FLOAT
    }
  }
  attr {
    key: "value"
    value {
      tensor {
        dtype: DT_FLOAT
        tensor_shape {
        }
        float_val: -0.027386127039790154
      }
    }
  }
}
node {
  name: "deepq/target_q_func/action_value/fully_connected/weights/Initializer/random_uniform/max"
  op: "Const"
  attr {
    key: "_class"
    value {
      list {
        s: "loc:@deepq/target_q_func/action_value/fully_connected/weights"
      }
    }
  }
  attr {
    key: "dtype"
    value {
      type: DT_FLOAT
    }
  }
  attr {
    key: "value"
    value {
      tensor {
        dtype: DT_FLOAT
        tensor_shape {
        }
        float_val: 0.027386127039790154
      }
    }
  }
}
node {
  name: "deepq/target_q_func/action_value/fully_connected/weights/Initializer/random_uniform/RandomUniform"
  op: "RandomUniform"
  input: "deepq/target_q_func/action_value/fully_connected/weights/Initializer/random_uniform/shape"
  attr {
    key: "T"
    value {
      type: DT_INT32
    }
  }
  attr {
    key: "_class"
    value {
      list {
        s: "loc:@deepq/target_q_func/action_value/fully_connected/weights"
      }
    }
  }
  attr {
    key: "dtype"
    value {
      type: DT_FLOAT
    }
  }
  attr {
    key: "seed"
    value {
      i: 0
    }
  }
  attr {
    key: "seed2"
    value {
      i: 0
    }
  }
}
node {
  name: "deepq/target_q_func/action_value/fully_connected/weights/Initializer/random_uniform/sub"
  op: "Sub"
  input: "deepq/target_q_func/action_value/fully_connected/weights/Initializer/random_uniform/max"
  input: "deepq/target_q_func/action_value/fully_connected/weights/Initializer/random_uniform/min"
  attr {
    key: "T"
    value {
      type: DT_FLOAT
    }
  }
  attr {
    key: "_class"
    value {
      list {
        s: "loc:@deepq/target_q_func/action_value/fully_connected/weights"
      }
    }
  }
}
node {
  name: "deepq/target_q_func/action_value/fully_connected/weights/Initializer/random_uniform/mul"
  op: "Mul"
  input: "deepq/target_q_func/action_value/fully_connected/weights/Initializer/random_uniform/RandomUniform"
  input: "deepq/target_q_func/action_value/fully_connected/weights/Initializer/random_uniform/sub"
  attr {
    key: "T"
    value {
      type: DT_FLOAT
    }
  }
  attr {
    key: "_class"
    value {
      list {
        s: "loc:@deepq/target_q_func/action_value/fully_connected/weights"
      }
    }
  }
}
node {
  name: "deepq/target_q_func/action_value/fully_connected/weights/Initializer/random_uniform"
  op: "Add"
  input: "deepq/target_q_func/action_value/fully_connected/weights/Initializer/random_uniform/mul"
  input: "deepq/target_q_func/action_value/fully_connected/weights/Initializer/random_uniform/min"
  attr {
    key: "T"
    value {
      type: DT_FLOAT
    }
  }
  attr {
    key: "_class"
    value {
      list {
        s: "loc:@deepq/target_q_func/action_value/fully_connected/weights"
      }
    }
  }
}
node {
  name: "deepq/target_q_func/action_value/fully_connected/weights"
  op: "VariableV2"
  attr {
    key: "_class"
    value {
      list {
        s: "loc:@deepq/target_q_func/action_value/fully_connected/weights"
      }
    }
  }
  attr {
    key: "container"
    value {
      s: ""
    }
  }
  attr {
    key: "dtype"
    value {
      type: DT_FLOAT
    }
  }
  attr {
    key: "shape"
    value {
      shape {
        dim {
          size: 7744
        }
        dim {
          size: 256
        }
      }
    }
  }
  attr {
    key: "shared_name"
    value {
      s: ""
    }
  }
}
node {
  name: "deepq/target_q_func/action_value/fully_connected/weights/Assign"
  op: "Assign"
  input: "deepq/target_q_func/action_value/fully_connected/weights"
  input: "deepq/target_q_func/action_value/fully_connected/weights/Initializer/random_uniform"
  attr {
    key: "T"
    value {
      type: DT_FLOAT
    }
  }
  attr {
    key: "_class"
    value {
      list {
        s: "loc:@deepq/target_q_func/action_value/fully_connected/weights"
      }
    }
  }
  attr {
    key: "use_locking"
    value {
      b: true
    }
  }
  attr {
    key: "validate_shape"
    value {
      b: true
    }
  }
}
node {
  name: "deepq/target_q_func/action_value/fully_connected/weights/read"
  op: "Identity"
  input: "deepq/target_q_func/action_value/fully_connected/weights"
  attr {
    key: "T"
    value {
      type: DT_FLOAT
    }
  }
  attr {
    key: "_class"
    value {
      list {
        s: "loc:@deepq/target_q_func/action_value/fully_connected/weights"
      }
    }
  }
}
node {
  name: "deepq/target_q_func/action_value/fully_connected/biases/Initializer/zeros"
  op: "Const"
  attr {
    key: "_class"
    value {
      list {
        s: "loc:@deepq/target_q_func/action_value/fully_connected/biases"
      }
    }
  }
  attr {
    key: "dtype"
    value {
      type: DT_FLOAT
    }
  }
  attr {
    key: "value"
    value {
      tensor {
        dtype: DT_FLOAT
        tensor_shape {
          dim {
            size: 256
          }
        }
        float_val: 0.0
      }
    }
  }
}
node {
  name: "deepq/target_q_func/action_value/fully_connected/biases"
  op: "VariableV2"
  attr {
    key: "_class"
    value {
      list {
        s: "loc:@deepq/target_q_func/action_value/fully_connected/biases"
      }
    }
  }
  attr {
    key: "container"
    value {
      s: ""
    }
  }
  attr {
    key: "dtype"
    value {
      type: DT_FLOAT
    }
  }
  attr {
    key: "shape"
    value {
      shape {
        dim {
          size: 256
        }
      }
    }
  }
  attr {
    key: "shared_name"
    value {
      s: ""
    }
  }
}
node {
  name: "deepq/target_q_func/action_value/fully_connected/biases/Assign"
  op: "Assign"
  input: "deepq/target_q_func/action_value/fully_connected/biases"
  input: "deepq/target_q_func/action_value/fully_connected/biases/Initializer/zeros"
  attr {
    key: "T"
    value {
      type: DT_FLOAT
    }
  }
  attr {
    key: "_class"
    value {
      list {
        s: "loc:@deepq/target_q_func/action_value/fully_connected/biases"
      }
    }
  }
  attr {
    key: "use_locking"
    value {
      b: true
    }
  }
  attr {
    key: "validate_shape"
    value {
      b: true
    }
  }
}
node {
  name: "deepq/target_q_func/action_value/fully_connected/biases/read"
  op: "Identity"
  input: "deepq/target_q_func/action_value/fully_connected/biases"
  attr {
    key: "T"
    value {
      type: DT_FLOAT
    }
  }
  attr {
    key: "_class"
    value {
      list {
        s: "loc:@deepq/target_q_func/action_value/fully_connected/biases"
      }
    }
  }
}
node {
  name: "deepq_1/target_q_func/action_value/fully_connected/MatMul"
  op: "MatMul"
  input: "deepq_1/target_q_func/Flatten/flatten/Reshape"
  input: "deepq/target_q_func/action_value/fully_connected/weights/read"
  attr {
    key: "T"
    value {
      type: DT_FLOAT
    }
  }
  attr {
    key: "transpose_a"
    value {
      b: false
    }
  }
  attr {
    key: "transpose_b"
    value {
      b: false
    }
  }
}
node {
  name: "deepq_1/target_q_func/action_value/fully_connected/BiasAdd"
  op: "BiasAdd"
  input: "deepq_1/target_q_func/action_value/fully_connected/MatMul"
  input: "deepq/target_q_func/action_value/fully_connected/biases/read"
  attr {
    key: "T"
    value {
      type: DT_FLOAT
    }
  }
  attr {
    key: "data_format"
    value {
      s: "NHWC"
    }
  }
}
node {
  name: "deepq_1/target_q_func/action_value/Relu"
  op: "Relu"
  input: "deepq_1/target_q_func/action_value/fully_connected/BiasAdd"
  attr {
    key: "T"
    value {
      type: DT_FLOAT
    }
  }
}
node {
  name: "deepq/target_q_func/action_value/fully_connected_1/weights/Initializer/random_uniform/shape"
  op: "Const"
  attr {
    key: "_class"
    value {
      list {
        s: "loc:@deepq/target_q_func/action_value/fully_connected_1/weights"
      }
    }
  }
  attr {
    key: "dtype"
    value {
      type: DT_INT32
    }
  }
  attr {
    key: "value"
    value {
      tensor {
        dtype: DT_INT32
        tensor_shape {
          dim {
            size: 2
          }
        }
        tensor_content: "\000\001\000\000\006\000\000\000"
      }
    }
  }
}
node {
  name: "deepq/target_q_func/action_value/fully_connected_1/weights/Initializer/random_uniform/min"
  op: "Const"
  attr {
    key: "_class"
    value {
      list {
        s: "loc:@deepq/target_q_func/action_value/fully_connected_1/weights"
      }
    }
  }
  attr {
    key: "dtype"
    value {
      type: DT_FLOAT
    }
  }
  attr {
    key: "value"
    value {
      tensor {
        dtype: DT_FLOAT
        tensor_shape {
        }
        float_val: -0.15132997930049896
      }
    }
  }
}
node {
  name: "deepq/target_q_func/action_value/fully_connected_1/weights/Initializer/random_uniform/max"
  op: "Const"
  attr {
    key: "_class"
    value {
      list {
        s: "loc:@deepq/target_q_func/action_value/fully_connected_1/weights"
      }
    }
  }
  attr {
    key: "dtype"
    value {
      type: DT_FLOAT
    }
  }
  attr {
    key: "value"
    value {
      tensor {
        dtype: DT_FLOAT
        tensor_shape {
        }
        float_val: 0.15132997930049896
      }
    }
  }
}
node {
  name: "deepq/target_q_func/action_value/fully_connected_1/weights/Initializer/random_uniform/RandomUniform"
  op: "RandomUniform"
  input: "deepq/target_q_func/action_value/fully_connected_1/weights/Initializer/random_uniform/shape"
  attr {
    key: "T"
    value {
      type: DT_INT32
    }
  }
  attr {
    key: "_class"
    value {
      list {
        s: "loc:@deepq/target_q_func/action_value/fully_connected_1/weights"
      }
    }
  }
  attr {
    key: "dtype"
    value {
      type: DT_FLOAT
    }
  }
  attr {
    key: "seed"
    value {
      i: 0
    }
  }
  attr {
    key: "seed2"
    value {
      i: 0
    }
  }
}
node {
  name: "deepq/target_q_func/action_value/fully_connected_1/weights/Initializer/random_uniform/sub"
  op: "Sub"
  input: "deepq/target_q_func/action_value/fully_connected_1/weights/Initializer/random_uniform/max"
  input: "deepq/target_q_func/action_value/fully_connected_1/weights/Initializer/random_uniform/min"
  attr {
    key: "T"
    value {
      type: DT_FLOAT
    }
  }
  attr {
    key: "_class"
    value {
      list {
        s: "loc:@deepq/target_q_func/action_value/fully_connected_1/weights"
      }
    }
  }
}
node {
  name: "deepq/target_q_func/action_value/fully_connected_1/weights/Initializer/random_uniform/mul"
  op: "Mul"
  input: "deepq/target_q_func/action_value/fully_connected_1/weights/Initializer/random_uniform/RandomUniform"
  input: "deepq/target_q_func/action_value/fully_connected_1/weights/Initializer/random_uniform/sub"
  attr {
    key: "T"
    value {
      type: DT_FLOAT
    }
  }
  attr {
    key: "_class"
    value {
      list {
        s: "loc:@deepq/target_q_func/action_value/fully_connected_1/weights"
      }
    }
  }
}
node {
  name: "deepq/target_q_func/action_value/fully_connected_1/weights/Initializer/random_uniform"
  op: "Add"
  input: "deepq/target_q_func/action_value/fully_connected_1/weights/Initializer/random_uniform/mul"
  input: "deepq/target_q_func/action_value/fully_connected_1/weights/Initializer/random_uniform/min"
  attr {
    key: "T"
    value {
      type: DT_FLOAT
    }
  }
  attr {
    key: "_class"
    value {
      list {
        s: "loc:@deepq/target_q_func/action_value/fully_connected_1/weights"
      }
    }
  }
}
node {
  name: "deepq/target_q_func/action_value/fully_connected_1/weights"
  op: "VariableV2"
  attr {
    key: "_class"
    value {
      list {
        s: "loc:@deepq/target_q_func/action_value/fully_connected_1/weights"
      }
    }
  }
  attr {
    key: "container"
    value {
      s: ""
    }
  }
  attr {
    key: "dtype"
    value {
      type: DT_FLOAT
    }
  }
  attr {
    key: "shape"
    value {
      shape {
        dim {
          size: 256
        }
        dim {
          size: 6
        }
      }
    }
  }
  attr {
    key: "shared_name"
    value {
      s: ""
    }
  }
}
node {
  name: "deepq/target_q_func/action_value/fully_connected_1/weights/Assign"
  op: "Assign"
  input: "deepq/target_q_func/action_value/fully_connected_1/weights"
  input: "deepq/target_q_func/action_value/fully_connected_1/weights/Initializer/random_uniform"
  attr {
    key: "T"
    value {
      type: DT_FLOAT
    }
  }
  attr {
    key: "_class"
    value {
      list {
        s: "loc:@deepq/target_q_func/action_value/fully_connected_1/weights"
      }
    }
  }
  attr {
    key: "use_locking"
    value {
      b: true
    }
  }
  attr {
    key: "validate_shape"
    value {
      b: true
    }
  }
}
node {
  name: "deepq/target_q_func/action_value/fully_connected_1/weights/read"
  op: "Identity"
  input: "deepq/target_q_func/action_value/fully_connected_1/weights"
  attr {
    key: "T"
    value {
      type: DT_FLOAT
    }
  }
  attr {
    key: "_class"
    value {
      list {
        s: "loc:@deepq/target_q_func/action_value/fully_connected_1/weights"
      }
    }
  }
}
node {
  name: "deepq/target_q_func/action_value/fully_connected_1/biases/Initializer/zeros"
  op: "Const"
  attr {
    key: "_class"
    value {
      list {
        s: "loc:@deepq/target_q_func/action_value/fully_connected_1/biases"
      }
    }
  }
  attr {
    key: "dtype"
    value {
      type: DT_FLOAT
    }
  }
  attr {
    key: "value"
    value {
      tensor {
        dtype: DT_FLOAT
        tensor_shape {
          dim {
            size: 6
          }
        }
        float_val: 0.0
      }
    }
  }
}
node {
  name: "deepq/target_q_func/action_value/fully_connected_1/biases"
  op: "VariableV2"
  attr {
    key: "_class"
    value {
      list {
        s: "loc:@deepq/target_q_func/action_value/fully_connected_1/biases"
      }
    }
  }
  attr {
    key: "container"
    value {
      s: ""
    }
  }
  attr {
    key: "dtype"
    value {
      type: DT_FLOAT
    }
  }
  attr {
    key: "shape"
    value {
      shape {
        dim {
          size: 6
        }
      }
    }
  }
  attr {
    key: "shared_name"
    value {
      s: ""
    }
  }
}
node {
  name: "deepq/target_q_func/action_value/fully_connected_1/biases/Assign"
  op: "Assign"
  input: "deepq/target_q_func/action_value/fully_connected_1/biases"
  input: "deepq/target_q_func/action_value/fully_connected_1/biases/Initializer/zeros"
  attr {
    key: "T"
    value {
      type: DT_FLOAT
    }
  }
  attr {
    key: "_class"
    value {
      list {
        s: "loc:@deepq/target_q_func/action_value/fully_connected_1/biases"
      }
    }
  }
  attr {
    key: "use_locking"
    value {
      b: true
    }
  }
  attr {
    key: "validate_shape"
    value {
      b: true
    }
  }
}
node {
  name: "deepq/target_q_func/action_value/fully_connected_1/biases/read"
  op: "Identity"
  input: "deepq/target_q_func/action_value/fully_connected_1/biases"
  attr {
    key: "T"
    value {
      type: DT_FLOAT
    }
  }
  attr {
    key: "_class"
    value {
      list {
        s: "loc:@deepq/target_q_func/action_value/fully_connected_1/biases"
      }
    }
  }
}
node {
  name: "deepq_1/target_q_func/action_value/fully_connected_1/MatMul"
  op: "MatMul"
  input: "deepq_1/target_q_func/action_value/Relu"
  input: "deepq/target_q_func/action_value/fully_connected_1/weights/read"
  attr {
    key: "T"
    value {
      type: DT_FLOAT
    }
  }
  attr {
    key: "transpose_a"
    value {
      b: false
    }
  }
  attr {
    key: "transpose_b"
    value {
      b: false
    }
  }
}
node {
  name: "deepq_1/target_q_func/action_value/fully_connected_1/BiasAdd"
  op: "BiasAdd"
  input: "deepq_1/target_q_func/action_value/fully_connected_1/MatMul"
  input: "deepq/target_q_func/action_value/fully_connected_1/biases/read"
  attr {
    key: "T"
    value {
      type: DT_FLOAT
    }
  }
  attr {
    key: "data_format"
    value {
      s: "NHWC"
    }
  }
}
node {
  name: "deepq/target_q_func/state_value/fully_connected/weights/Initializer/random_uniform/shape"
  op: "Const"
  attr {
    key: "_class"
    value {
      list {
        s: "loc:@deepq/target_q_func/state_value/fully_connected/weights"
      }
    }
  }
  attr {
    key: "dtype"
    value {
      type: DT_INT32
    }
  }
  attr {
    key: "value"
    value {
      tensor {
        dtype: DT_INT32
        tensor_shape {
          dim {
            size: 2
          }
        }
        tensor_content: "@\036\000\000\000\001\000\000"
      }
    }
  }
}
node {
  name: "deepq/target_q_func/state_value/fully_connected/weights/Initializer/random_uniform/min"
  op: "Const"
  attr {
    key: "_class"
    value {
      list {
        s: "loc:@deepq/target_q_func/state_value/fully_connected/weights"
      }
    }
  }
  attr {
    key: "dtype"
    value {
      type: DT_FLOAT
    }
  }
  attr {
    key: "value"
    value {
      tensor {
        dtype: DT_FLOAT
        tensor_shape {
        }
        float_val: -0.027386127039790154
      }
    }
  }
}
node {
  name: "deepq/target_q_func/state_value/fully_connected/weights/Initializer/random_uniform/max"
  op: "Const"
  attr {
    key: "_class"
    value {
      list {
        s: "loc:@deepq/target_q_func/state_value/fully_connected/weights"
      }
    }
  }
  attr {
    key: "dtype"
    value {
      type: DT_FLOAT
    }
  }
  attr {
    key: "value"
    value {
      tensor {
        dtype: DT_FLOAT
        tensor_shape {
        }
        float_val: 0.027386127039790154
      }
    }
  }
}
node {
  name: "deepq/target_q_func/state_value/fully_connected/weights/Initializer/random_uniform/RandomUniform"
  op: "RandomUniform"
  input: "deepq/target_q_func/state_value/fully_connected/weights/Initializer/random_uniform/shape"
  attr {
    key: "T"
    value {
      type: DT_INT32
    }
  }
  attr {
    key: "_class"
    value {
      list {
        s: "loc:@deepq/target_q_func/state_value/fully_connected/weights"
      }
    }
  }
  attr {
    key: "dtype"
    value {
      type: DT_FLOAT
    }
  }
  attr {
    key: "seed"
    value {
      i: 0
    }
  }
  attr {
    key: "seed2"
    value {
      i: 0
    }
  }
}
node {
  name: "deepq/target_q_func/state_value/fully_connected/weights/Initializer/random_uniform/sub"
  op: "Sub"
  input: "deepq/target_q_func/state_value/fully_connected/weights/Initializer/random_uniform/max"
  input: "deepq/target_q_func/state_value/fully_connected/weights/Initializer/random_uniform/min"
  attr {
    key: "T"
    value {
      type: DT_FLOAT
    }
  }
  attr {
    key: "_class"
    value {
      list {
        s: "loc:@deepq/target_q_func/state_value/fully_connected/weights"
      }
    }
  }
}
node {
  name: "deepq/target_q_func/state_value/fully_connected/weights/Initializer/random_uniform/mul"
  op: "Mul"
  input: "deepq/target_q_func/state_value/fully_connected/weights/Initializer/random_uniform/RandomUniform"
  input: "deepq/target_q_func/state_value/fully_connected/weights/Initializer/random_uniform/sub"
  attr {
    key: "T"
    value {
      type: DT_FLOAT
    }
  }
  attr {
    key: "_class"
    value {
      list {
        s: "loc:@deepq/target_q_func/state_value/fully_connected/weights"
      }
    }
  }
}
node {
  name: "deepq/target_q_func/state_value/fully_connected/weights/Initializer/random_uniform"
  op: "Add"
  input: "deepq/target_q_func/state_value/fully_connected/weights/Initializer/random_uniform/mul"
  input: "deepq/target_q_func/state_value/fully_connected/weights/Initializer/random_uniform/min"
  attr {
    key: "T"
    value {
      type: DT_FLOAT
    }
  }
  attr {
    key: "_class"
    value {
      list {
        s: "loc:@deepq/target_q_func/state_value/fully_connected/weights"
      }
    }
  }
}
node {
  name: "deepq/target_q_func/state_value/fully_connected/weights"
  op: "VariableV2"
  attr {
    key: "_class"
    value {
      list {
        s: "loc:@deepq/target_q_func/state_value/fully_connected/weights"
      }
    }
  }
  attr {
    key: "container"
    value {
      s: ""
    }
  }
  attr {
    key: "dtype"
    value {
      type: DT_FLOAT
    }
  }
  attr {
    key: "shape"
    value {
      shape {
        dim {
          size: 7744
        }
        dim {
          size: 256
        }
      }
    }
  }
  attr {
    key: "shared_name"
    value {
      s: ""
    }
  }
}
node {
  name: "deepq/target_q_func/state_value/fully_connected/weights/Assign"
  op: "Assign"
  input: "deepq/target_q_func/state_value/fully_connected/weights"
  input: "deepq/target_q_func/state_value/fully_connected/weights/Initializer/random_uniform"
  attr {
    key: "T"
    value {
      type: DT_FLOAT
    }
  }
  attr {
    key: "_class"
    value {
      list {
        s: "loc:@deepq/target_q_func/state_value/fully_connected/weights"
      }
    }
  }
  attr {
    key: "use_locking"
    value {
      b: true
    }
  }
  attr {
    key: "validate_shape"
    value {
      b: true
    }
  }
}
node {
  name: "deepq/target_q_func/state_value/fully_connected/weights/read"
  op: "Identity"
  input: "deepq/target_q_func/state_value/fully_connected/weights"
  attr {
    key: "T"
    value {
      type: DT_FLOAT
    }
  }
  attr {
    key: "_class"
    value {
      list {
        s: "loc:@deepq/target_q_func/state_value/fully_connected/weights"
      }
    }
  }
}
node {
  name: "deepq/target_q_func/state_value/fully_connected/biases/Initializer/zeros"
  op: "Const"
  attr {
    key: "_class"
    value {
      list {
        s: "loc:@deepq/target_q_func/state_value/fully_connected/biases"
      }
    }
  }
  attr {
    key: "dtype"
    value {
      type: DT_FLOAT
    }
  }
  attr {
    key: "value"
    value {
      tensor {
        dtype: DT_FLOAT
        tensor_shape {
          dim {
            size: 256
          }
        }
        float_val: 0.0
      }
    }
  }
}
node {
  name: "deepq/target_q_func/state_value/fully_connected/biases"
  op: "VariableV2"
  attr {
    key: "_class"
    value {
      list {
        s: "loc:@deepq/target_q_func/state_value/fully_connected/biases"
      }
    }
  }
  attr {
    key: "container"
    value {
      s: ""
    }
  }
  attr {
    key: "dtype"
    value {
      type: DT_FLOAT
    }
  }
  attr {
    key: "shape"
    value {
      shape {
        dim {
          size: 256
        }
      }
    }
  }
  attr {
    key: "shared_name"
    value {
      s: ""
    }
  }
}
node {
  name: "deepq/target_q_func/state_value/fully_connected/biases/Assign"
  op: "Assign"
  input: "deepq/target_q_func/state_value/fully_connected/biases"
  input: "deepq/target_q_func/state_value/fully_connected/biases/Initializer/zeros"
  attr {
    key: "T"
    value {
      type: DT_FLOAT
    }
  }
  attr {
    key: "_class"
    value {
      list {
        s: "loc:@deepq/target_q_func/state_value/fully_connected/biases"
      }
    }
  }
  attr {
    key: "use_locking"
    value {
      b: true
    }
  }
  attr {
    key: "validate_shape"
    value {
      b: true
    }
  }
}
node {
  name: "deepq/target_q_func/state_value/fully_connected/biases/read"
  op: "Identity"
  input: "deepq/target_q_func/state_value/fully_connected/biases"
  attr {
    key: "T"
    value {
      type: DT_FLOAT
    }
  }
  attr {
    key: "_class"
    value {
      list {
        s: "loc:@deepq/target_q_func/state_value/fully_connected/biases"
      }
    }
  }
}
node {
  name: "deepq_1/target_q_func/state_value/fully_connected/MatMul"
  op: "MatMul"
  input: "deepq_1/target_q_func/Flatten/flatten/Reshape"
  input: "deepq/target_q_func/state_value/fully_connected/weights/read"
  attr {
    key: "T"
    value {
      type: DT_FLOAT
    }
  }
  attr {
    key: "transpose_a"
    value {
      b: false
    }
  }
  attr {
    key: "transpose_b"
    value {
      b: false
    }
  }
}
node {
  name: "deepq_1/target_q_func/state_value/fully_connected/BiasAdd"
  op: "BiasAdd"
  input: "deepq_1/target_q_func/state_value/fully_connected/MatMul"
  input: "deepq/target_q_func/state_value/fully_connected/biases/read"
  attr {
    key: "T"
    value {
      type: DT_FLOAT
    }
  }
  attr {
    key: "data_format"
    value {
      s: "NHWC"
    }
  }
}
node {
  name: "deepq_1/target_q_func/state_value/Relu"
  op: "Relu"
  input: "deepq_1/target_q_func/state_value/fully_connected/BiasAdd"
  attr {
    key: "T"
    value {
      type: DT_FLOAT
    }
  }
}
node {
  name: "deepq/target_q_func/state_value/fully_connected_1/weights/Initializer/random_uniform/shape"
  op: "Const"
  attr {
    key: "_class"
    value {
      list {
        s: "loc:@deepq/target_q_func/state_value/fully_connected_1/weights"
      }
    }
  }
  attr {
    key: "dtype"
    value {
      type: DT_INT32
    }
  }
  attr {
    key: "value"
    value {
      tensor {
        dtype: DT_INT32
        tensor_shape {
          dim {
            size: 2
          }
        }
        tensor_content: "\000\001\000\000\001\000\000\000"
      }
    }
  }
}
node {
  name: "deepq/target_q_func/state_value/fully_connected_1/weights/Initializer/random_uniform/min"
  op: "Const"
  attr {
    key: "_class"
    value {
      list {
        s: "loc:@deepq/target_q_func/state_value/fully_connected_1/weights"
      }
    }
  }
  attr {
    key: "dtype"
    value {
      type: DT_FLOAT
    }
  }
  attr {
    key: "value"
    value {
      tensor {
        dtype: DT_FLOAT
        tensor_shape {
        }
        float_val: -0.1527949720621109
      }
    }
  }
}
node {
  name: "deepq/target_q_func/state_value/fully_connected_1/weights/Initializer/random_uniform/max"
  op: "Const"
  attr {
    key: "_class"
    value {
      list {
        s: "loc:@deepq/target_q_func/state_value/fully_connected_1/weights"
      }
    }
  }
  attr {
    key: "dtype"
    value {
      type: DT_FLOAT
    }
  }
  attr {
    key: "value"
    value {
      tensor {
        dtype: DT_FLOAT
        tensor_shape {
        }
        float_val: 0.1527949720621109
      }
    }
  }
}
node {
  name: "deepq/target_q_func/state_value/fully_connected_1/weights/Initializer/random_uniform/RandomUniform"
  op: "RandomUniform"
  input: "deepq/target_q_func/state_value/fully_connected_1/weights/Initializer/random_uniform/shape"
  attr {
    key: "T"
    value {
      type: DT_INT32
    }
  }
  attr {
    key: "_class"
    value {
      list {
        s: "loc:@deepq/target_q_func/state_value/fully_connected_1/weights"
      }
    }
  }
  attr {
    key: "dtype"
    value {
      type: DT_FLOAT
    }
  }
  attr {
    key: "seed"
    value {
      i: 0
    }
  }
  attr {
    key: "seed2"
    value {
      i: 0
    }
  }
}
node {
  name: "deepq/target_q_func/state_value/fully_connected_1/weights/Initializer/random_uniform/sub"
  op: "Sub"
  input: "deepq/target_q_func/state_value/fully_connected_1/weights/Initializer/random_uniform/max"
  input: "deepq/target_q_func/state_value/fully_connected_1/weights/Initializer/random_uniform/min"
  attr {
    key: "T"
    value {
      type: DT_FLOAT
    }
  }
  attr {
    key: "_class"
    value {
      list {
        s: "loc:@deepq/target_q_func/state_value/fully_connected_1/weights"
      }
    }
  }
}
node {
  name: "deepq/target_q_func/state_value/fully_connected_1/weights/Initializer/random_uniform/mul"
  op: "Mul"
  input: "deepq/target_q_func/state_value/fully_connected_1/weights/Initializer/random_uniform/RandomUniform"
  input: "deepq/target_q_func/state_value/fully_connected_1/weights/Initializer/random_uniform/sub"
  attr {
    key: "T"
    value {
      type: DT_FLOAT
    }
  }
  attr {
    key: "_class"
    value {
      list {
        s: "loc:@deepq/target_q_func/state_value/fully_connected_1/weights"
      }
    }
  }
}
node {
  name: "deepq/target_q_func/state_value/fully_connected_1/weights/Initializer/random_uniform"
  op: "Add"
  input: "deepq/target_q_func/state_value/fully_connected_1/weights/Initializer/random_uniform/mul"
  input: "deepq/target_q_func/state_value/fully_connected_1/weights/Initializer/random_uniform/min"
  attr {
    key: "T"
    value {
      type: DT_FLOAT
    }
  }
  attr {
    key: "_class"
    value {
      list {
        s: "loc:@deepq/target_q_func/state_value/fully_connected_1/weights"
      }
    }
  }
}
node {
  name: "deepq/target_q_func/state_value/fully_connected_1/weights"
  op: "VariableV2"
  attr {
    key: "_class"
    value {
      list {
        s: "loc:@deepq/target_q_func/state_value/fully_connected_1/weights"
      }
    }
  }
  attr {
    key: "container"
    value {
      s: ""
    }
  }
  attr {
    key: "dtype"
    value {
      type: DT_FLOAT
    }
  }
  attr {
    key: "shape"
    value {
      shape {
        dim {
          size: 256
        }
        dim {
          size: 1
        }
      }
    }
  }
  attr {
    key: "shared_name"
    value {
      s: ""
    }
  }
}
node {
  name: "deepq/target_q_func/state_value/fully_connected_1/weights/Assign"
  op: "Assign"
  input: "deepq/target_q_func/state_value/fully_connected_1/weights"
  input: "deepq/target_q_func/state_value/fully_connected_1/weights/Initializer/random_uniform"
  attr {
    key: "T"
    value {
      type: DT_FLOAT
    }
  }
  attr {
    key: "_class"
    value {
      list {
        s: "loc:@deepq/target_q_func/state_value/fully_connected_1/weights"
      }
    }
  }
  attr {
    key: "use_locking"
    value {
      b: true
    }
  }
  attr {
    key: "validate_shape"
    value {
      b: true
    }
  }
}
node {
  name: "deepq/target_q_func/state_value/fully_connected_1/weights/read"
  op: "Identity"
  input: "deepq/target_q_func/state_value/fully_connected_1/weights"
  attr {
    key: "T"
    value {
      type: DT_FLOAT
    }
  }
  attr {
    key: "_class"
    value {
      list {
        s: "loc:@deepq/target_q_func/state_value/fully_connected_1/weights"
      }
    }
  }
}
node {
  name: "deepq/target_q_func/state_value/fully_connected_1/biases/Initializer/zeros"
  op: "Const"
  attr {
    key: "_class"
    value {
      list {
        s: "loc:@deepq/target_q_func/state_value/fully_connected_1/biases"
      }
    }
  }
  attr {
    key: "dtype"
    value {
      type: DT_FLOAT
    }
  }
  attr {
    key: "value"
    value {
      tensor {
        dtype: DT_FLOAT
        tensor_shape {
          dim {
            size: 1
          }
        }
        float_val: 0.0
      }
    }
  }
}
node {
  name: "deepq/target_q_func/state_value/fully_connected_1/biases"
  op: "VariableV2"
  attr {
    key: "_class"
    value {
      list {
        s: "loc:@deepq/target_q_func/state_value/fully_connected_1/biases"
      }
    }
  }
  attr {
    key: "container"
    value {
      s: ""
    }
  }
  attr {
    key: "dtype"
    value {
      type: DT_FLOAT
    }
  }
  attr {
    key: "shape"
    value {
      shape {
        dim {
          size: 1
        }
      }
    }
  }
  attr {
    key: "shared_name"
    value {
      s: ""
    }
  }
}
node {
  name: "deepq/target_q_func/state_value/fully_connected_1/biases/Assign"
  op: "Assign"
  input: "deepq/target_q_func/state_value/fully_connected_1/biases"
  input: "deepq/target_q_func/state_value/fully_connected_1/biases/Initializer/zeros"
  attr {
    key: "T"
    value {
      type: DT_FLOAT
    }
  }
  attr {
    key: "_class"
    value {
      list {
        s: "loc:@deepq/target_q_func/state_value/fully_connected_1/biases"
      }
    }
  }
  attr {
    key: "use_locking"
    value {
      b: true
    }
  }
  attr {
    key: "validate_shape"
    value {
      b: true
    }
  }
}
node {
  name: "deepq/target_q_func/state_value/fully_connected_1/biases/read"
  op: "Identity"
  input: "deepq/target_q_func/state_value/fully_connected_1/biases"
  attr {
    key: "T"
    value {
      type: DT_FLOAT
    }
  }
  attr {
    key: "_class"
    value {
      list {
…
    value {
      b: true
    }
  }
  attr {
    key: "validate_shape"
    value {
      b: true
    }
  }
}
node {
  name: "deepq/deepq/q_func/action_value/fully_connected_1/biases/Adam_1/read"
  op: "Identity"
  input: "deepq/deepq/q_func/action_value/fully_connected_1/biases/Adam_1"
  attr {
    key: "T"
    value {
      type: DT_FLOAT
    }
  }
  attr {
    key: "_class"
    value {
      list {
        s: "loc:@deepq/q_func/action_value/fully_connected_1/biases"
      }
    }
  }
}
node {
  name: "deepq/deepq/q_func/state_value/fully_connected/weights/Adam/Initializer/zeros/shape_as_tensor"
  op: "Const"
  attr {
    key: "_class"
    value {
      list {
        s: "loc:@deepq/q_func/state_value/fully_connected/weights"
      }
    }
  }
  attr {
    key: "dtype"
    value {
      type: DT_INT32
    }
  }
  attr {
    key: "value"
    value {
      tensor {
        dtype: DT_INT32
        tensor_shape {
          dim {
            size: 2
          }
        }
        tensor_content: "@\036\000\000\000\001\000\000"
      }
    }
  }
}
node {
  name: "deepq/deepq/q_func/state_value/fully_connected/weights/Adam/Initializer/zeros/Const"
  op: "Const"
  attr {
    key: "_class"
    value {
      list {
        s: "loc:@deepq/q_func/state_value/fully_connected/weights"
      }
    }
  }
  attr {
    key: "dtype"
    value {
      type: DT_FLOAT
    }
  }
  attr {
    key: "value"
    value {
      tensor {
        dtype: DT_FLOAT
        tensor_shape {
        }
        float_val: 0.0
      }
    }
  }
}
node {
  name: "deepq/deepq/q_func/state_value/fully_connected/weights/Adam/Initializer/zeros"
  op: "Fill"
  input: "deepq/deepq/q_func/state_value/fully_connected/weights/Adam/Initializer/zeros/shape_as_tensor"
  input: "deepq/deepq/q_func/state_value/fully_connected/weights/Adam/Initializer/zeros/Const"
  attr {
    key: "T"
    value {
      type: DT_FLOAT
    }
  }
  attr {
    key: "_class"
    value {
      list {
        s: "loc:@deepq/q_func/state_value/fully_connected/weights"
      }
    }
  }
  attr {
    key: "index_type"
    value {
      type: DT_INT32
    }
  }
}
node {
  name: "deepq/deepq/q_func/state_value/fully_connected/weights/Adam"
  op: "VariableV2"
  attr {
    key: "_class"
    value {
      list {
        s: "loc:@deepq/q_func/state_value/fully_connected/weights"
      }
    }
  }
  attr {
    key: "container"
    value {
      s: ""
    }
  }
  attr {
    key: "dtype"
    value {
      type: DT_FLOAT
    }
  }
  attr {
    key: "shape"
    value {
      shape {
        dim {
          size: 7744
        }
        dim {
          size: 256
        }
      }
    }
  }
  attr {
    key: "shared_name"
    value {
      s: ""
    }
  }
}
node {
  name: "deepq/deepq/q_func/state_value/fully_connected/weights/Adam/Assign"
  op: "Assign"
  input: "deepq/deepq/q_func/state_value/fully_connected/weights/Adam"
  input: "deepq/deepq/q_func/state_value/fully_connected/weights/Adam/Initializer/zeros"
  attr {
    key: "T"
    value {
      type: DT_FLOAT
    }
  }
  attr {
    key: "_class"
    value {
      list {
        s: "loc:@deepq/q_func/state_value/fully_connected/weights"
      }
    }
  }
  attr {
    key: "use_locking"
    value {
      b: true
    }
  }
  attr {
    key: "validate_shape"
    value {
      b: true
    }
  }
}
node {
  name: "deepq/deepq/q_func/state_value/fully_connected/weights/Adam/read"
  op: "Identity"
  input: "deepq/deepq/q_func/state_value/fully_connected/weights/Adam"
  attr {
    key: "T"
    value {
      type: DT_FLOAT
    }
  }
  attr {
    key: "_class"
    value {
      list {
        s: "loc:@deepq/q_func/state_value/fully_connected/weights"
      }
    }
  }
}
node {
  name: "deepq/deepq/q_func/state_value/fully_connected/weights/Adam_1/Initializer/zeros/shape_as_tensor"
  op: "Const"
  attr {
    key: "_class"
    value {
      list {
        s: "loc:@deepq/q_func/state_value/fully_connected/weights"
      }
    }
  }
  attr {
    key: "dtype"
    value {
      type: DT_INT32
    }
  }
  attr {
    key: "value"
    value {
      tensor {
        dtype: DT_INT32
        tensor_shape {
          dim {
            size: 2
          }
        }
        tensor_content: "@\036\000\000\000\001\000\000"
      }
    }
  }
}
node {
  name: "deepq/deepq/q_func/state_value/fully_connected/weights/Adam_1/Initializer/zeros/Const"
  op: "Const"
  attr {
    key: "_class"
    value {
      list {
        s: "loc:@deepq/q_func/state_value/fully_connected/weights"
      }
    }
  }
  attr {
    key: "dtype"
    value {
      type: DT_FLOAT
    }
  }
  attr {
    key: "value"
    value {
      tensor {
        dtype: DT_FLOAT
        tensor_shape {
        }
        float_val: 0.0
      }
    }
  }
}
node {
  name: "deepq/deepq/q_func/state_value/fully_connected/weights/Adam_1/Initializer/zeros"
  op: "Fill"
  input: "deepq/deepq/q_func/state_value/fully_connected/weights/Adam_1/Initializer/zeros/shape_as_tensor"
  input: "deepq/deepq/q_func/state_value/fully_connected/weights/Adam_1/Initializer/zeros/Const"
  attr {
    key: "T"
    value {
      type: DT_FLOAT
    }
  }
  attr {
    key: "_class"
    value {
      list {
        s: "loc:@deepq/q_func/state_value/fully_connected/weights"
      }
    }
  }
  attr {
    key: "index_type"
    value {
      type: DT_INT32
    }
  }
}
node {
  name: "deepq/deepq/q_func/state_value/fully_connected/weights/Adam_1"
  op: "VariableV2"
  attr {
    key: "_class"
    value {
      list {
        s: "loc:@deepq/q_func/state_value/fully_connected/weights"
      }
    }
  }
  attr {
    key: "container"
    value {
      s: ""
    }
  }
  attr {
    key: "dtype"
    value {
      type: DT_FLOAT
    }
  }
  attr {
    key: "shape"
    value {
      shape {
        dim {
          size: 7744
        }
        dim {
          size: 256
        }
      }
    }
  }
  attr {
    key: "shared_name"
    value {
      s: ""
    }
  }
}
node {
  name: "deepq/deepq/q_func/state_value/fully_connected/weights/Adam_1/Assign"
  op: "Assign"
  input: "deepq/deepq/q_func/state_value/fully_connected/weights/Adam_1"
  input: "deepq/deepq/q_func/state_value/fully_connected/weights/Adam_1/Initializer/zeros"
  attr {
    key: "T"
    value {
      type: DT_FLOAT
    }
  }
  attr {
    key: "_class"
    value {
      list {
        s: "loc:@deepq/q_func/state_value/fully_connected/weights"
      }
    }
  }
  attr {
    key: "use_locking"
    value {
      b: true
    }
  }
  attr {
    key: "validate_shape"
    value {
      b: true
    }
  }
}
node {
  name: "deepq/deepq/q_func/state_value/fully_connected/weights/Adam_1/read"
  op: "Identity"
  input: "deepq/deepq/q_func/state_value/fully_connected/weights/Adam_1"
  attr {
    key: "T"
    value {
      type: DT_FLOAT
    }
  }
  attr {
    key: "_class"
    value {
      list {
        s: "loc:@deepq/q_func/state_value/fully_connected/weights"
      }
    }
  }
}
node {
  name: "deepq/deepq/q_func/state_value/fully_connected/biases/Adam/Initializer/zeros"
  op: "Const"
  attr {
    key: "_class"
    value {
      list {
        s: "loc:@deepq/q_func/state_value/fully_connected/biases"
      }
    }
  }
  attr {
    key: "dtype"
    value {
      type: DT_FLOAT
    }
  }
  attr {
    key: "value"
    value {
      tensor {
        dtype: DT_FLOAT
        tensor_shape {
          dim {
            size: 256
          }
        }
        float_val: 0.0
      }
    }
  }
}
node {
  name: "deepq/deepq/q_func/state_value/fully_connected/biases/Adam"
  op: "VariableV2"
  attr {
    key: "_class"
    value {
      list {
        s: "loc:@deepq/q_func/state_value/fully_connected/biases"
      }
    }
  }
  attr {
    key: "container"
    value {
      s: ""
    }
  }
  attr {
    key: "dtype"
    value {
      type: DT_FLOAT
    }
  }
  attr {
    key: "shape"
    value {
      shape {
        dim {
          size: 256
        }
      }
    }
  }
  attr {
    key: "shared_name"
    value {
      s: ""
    }
  }
}
node {
  name: "deepq/deepq/q_func/state_value/fully_connected/biases/Adam/Assign"
  op: "Assign"
  input: "deepq/deepq/q_func/state_value/fully_connected/biases/Adam"
  input: "deepq/deepq/q_func/state_value/fully_connected/biases/Adam/Initializer/zeros"
  attr {
    key: "T"
    value {
      type: DT_FLOAT
    }
  }
  attr {
    key: "_class"
    value {
      list {
        s: "loc:@deepq/q_func/state_value/fully_connected/biases"
      }
    }
  }
  attr {
    key: "use_locking"
    value {
      b: true
    }
  }
  attr {
    key: "validate_shape"
    value {
      b: true
    }
  }
}
node {
  name: "deepq/deepq/q_func/state_value/fully_connected/biases/Adam/read"
  op: "Identity"
  input: "deepq/deepq/q_func/state_value/fully_connected/biases/Adam"
  attr {
    key: "T"
    value {
      type: DT_FLOAT
    }
  }
  attr {
    key: "_class"
    value {
      list {
        s: "loc:@deepq/q_func/state_value/fully_connected/biases"
      }
    }
  }
}
node {
  name: "deepq/deepq/q_func/state_value/fully_connected/biases/Adam_1/Initializer/zeros"
  op: "Const"
  attr {
    key: "_class"
    value {
      list {
        s: "loc:@deepq/q_func/state_value/fully_connected/biases"
      }
    }
  }
  attr {
    key: "dtype"
    value {
      type: DT_FLOAT
    }
  }
  attr {
    key: "value"
    value {
      tensor {
        dtype: DT_FLOAT
        tensor_shape {
          dim {
            size: 256
          }
        }
        float_val: 0.0
      }
    }
  }
}
node {
  name: "deepq/deepq/q_func/state_value/fully_connected/biases/Adam_1"
  op: "VariableV2"
  attr {
    key: "_class"
    value {
      list {
        s: "loc:@deepq/q_func/state_value/fully_connected/biases"
      }
    }
  }
  attr {
    key: "container"
    value {
      s: ""
    }
  }
  attr {
    key: "dtype"
    value {
      type: DT_FLOAT
    }
  }
  attr {
    key: "shape"
    value {
      shape {
        dim {
          size: 256
        }
      }
    }
  }
  attr {
    key: "shared_name"
    value {
      s: ""
    }
  }
}
node {
  name: "deepq/deepq/q_func/state_value/fully_connected/biases/Adam_1/Assign"
  op: "Assign"
  input: "deepq/deepq/q_func/state_value/fully_connected/biases/Adam_1"
  input: "deepq/deepq/q_func/state_value/fully_connected/biases/Adam_1/Initializer/zeros"
  attr {
    key: "T"
    value {
      type: DT_FLOAT
    }
  }
  attr {
    key: "_class"
    value {
      list {
        s: "loc:@deepq/q_func/state_value/fully_connected/biases"
      }
    }
  }
  attr {
    key: "use_locking"
    value {
      b: true
    }
  }
  attr {
    key: "validate_shape"
    value {
      b: true
    }
  }
}
node {
  name: "deepq/deepq/q_func/state_value/fully_connected/biases/Adam_1/read"
  op: "Identity"
  input: "deepq/deepq/q_func/state_value/fully_connected/biases/Adam_1"
  attr {
    key: "T"
    value {
      type: DT_FLOAT
    }
  }
  attr {
    key: "_class"
    value {
      list {
        s: "loc:@deepq/q_func/state_value/fully_connected/biases"
      }
    }
  }
}
node {
  name: "deepq/deepq/q_func/state_value/fully_connected_1/weights/Adam/Initializer/zeros"
  op: "Const"
  attr {
    key: "_class"
    value {
      list {
        s: "loc:@deepq/q_func/state_value/fully_connected_1/weights"
      }
    }
  }
  attr {
    key: "dtype"
    value {
      type: DT_FLOAT
    }
  }
  attr {
    key: "value"
    value {
      tensor {
        dtype: DT_FLOAT
        tensor_shape {
          dim {
            size: 256
          }
          dim {
            size: 1
          }
        }
        float_val: 0.0
      }
    }
  }
}
node {
  name: "deepq/deepq/q_func/state_value/fully_connected_1/weights/Adam"
  op: "VariableV2"
  attr {
    key: "_class"
    value {
      list {
        s: "loc:@deepq/q_func/state_value/fully_connected_1/weights"
      }
    }
  }
  attr {
    key: "container"
    value {
      s: ""
    }
  }
  attr {
    key: "dtype"
    value {
      type: DT_FLOAT
    }
  }
  attr {
    key: "shape"
    value {
      shape {
        dim {
          size: 256
        }
        dim {
          size: 1
        }
      }
    }
  }
  attr {
    key: "shared_name"
    value {
      s: ""
    }
  }
}
node {
  name: "deepq/deepq/q_func/state_value/fully_connected_1/weights/Adam/Assign"
  op: "Assign"
  input: "deepq/deepq/q_func/state_value/fully_connected_1/weights/Adam"
  input: "deepq/deepq/q_func/state_value/fully_connected_1/weights/Adam/Initializer/zeros"
  attr {
    key: "T"
    value {
      type: DT_FLOAT
    }
  }
  attr {
    key: "_class"
    value {
      list {
        s: "loc:@deepq/q_func/state_value/fully_connected_1/weights"
      }
    }
  }
  attr {
    key: "use_locking"
    value {
      b: true
    }
  }
  attr {
    key: "validate_shape"
    value {
      b: true
    }
  }
}
node {
  name: "deepq/deepq/q_func/state_value/fully_connected_1/weights/Adam/read"
  op: "Identity"
  input: "deepq/deepq/q_func/state_value/fully_connected_1/weights/Adam"
  attr {
    key: "T"
    value {
      type: DT_FLOAT
    }
  }
  attr {
    key: "_class"
    value {
      list {
        s: "loc:@deepq/q_func/state_value/fully_connected_1/weights"
      }
    }
  }
}
node {
  name: "deepq/deepq/q_func/state_value/fully_connected_1/weights/Adam_1/Initializer/zeros"
  op: "Const"
  attr {
    key: "_class"
    value {
      list {
        s: "loc:@deepq/q_func/state_value/fully_connected_1/weights"
      }
    }
  }
  attr {
    key: "dtype"
    value {
      type: DT_FLOAT
    }
  }
  attr {
    key: "value"
    value {
      tensor {
        dtype: DT_FLOAT
        tensor_shape {
          dim {
            size: 256
          }
          dim {
            size: 1
          }
        }
        float_val: 0.0
      }
    }
  }
}
node {
  name: "deepq/deepq/q_func/state_value/fully_connected_1/weights/Adam_1"
  op: "VariableV2"
  attr {
    key: "_class"
    value {
      list {
        s: "loc:@deepq/q_func/state_value/fully_connected_1/weights"
      }
    }
  }
  attr {
    key: "container"
    value {
      s: ""
    }
  }
  attr {
    key: "dtype"
    value {
      type: DT_FLOAT
    }
  }
  attr {
    key: "shape"
    value {
      shape {
        dim {
          size: 256
        }
        dim {
          size: 1
        }
      }
    }
  }
  attr {
    key: "shared_name"
    value {
      s: ""
    }
  }
}
node {
  name: "deepq/deepq/q_func/state_value/fully_connected_1/weights/Adam_1/Assign"
  op: "Assign"
  input: "deepq/deepq/q_func/state_value/fully_connected_1/weights/Adam_1"
  input: "deepq/deepq/q_func/state_value/fully_connected_1/weights/Adam_1/Initializer/zeros"
  attr {
    key: "T"
    value {
      type: DT_FLOAT
    }
  }
  attr {
    key: "_class"
    value {
      list {
        s: "loc:@deepq/q_func/state_value/fully_connected_1/weights"
      }
    }
  }
  attr {
    key: "use_locking"
    value {
      b: true
    }
  }
  attr {
    key: "validate_shape"
    value {
      b: true
    }
  }
}
node {
  name: "deepq/deepq/q_func/state_value/fully_connected_1/weights/Adam_1/read"
  op: "Identity"
  input: "deepq/deepq/q_func/state_value/fully_connected_1/weights/Adam_1"
  attr {
    key: "T"
    value {
      type: DT_FLOAT
    }
  }
  attr {
    key: "_class"
    value {
      list {
        s: "loc:@deepq/q_func/state_value/fully_connected_1/weights"
      }
    }
  }
}
node {
  name: "deepq/deepq/q_func/state_value/fully_connected_1/biases/Adam/Initializer/zeros"
  op: "Const"
  attr {
    key: "_class"
    value {
      list {
        s: "loc:@deepq/q_func/state_value/fully_connected_1/biases"
      }
    }
  }
  attr {
    key: "dtype"
    value {
      type: DT_FLOAT
    }
  }
  attr {
    key: "value"
    value {
      tensor {
        dtype: DT_FLOAT
        tensor_shape {
          dim {
            size: 1
          }
        }
        float_val: 0.0
      }
    }
  }
}
node {
  name: "deepq/deepq/q_func/state_value/fully_connected_1/biases/Adam"
  op: "VariableV2"
  attr {
    key: "_class"
    value {
      list {
        s: "loc:@deepq/q_func/state_value/fully_connected_1/biases"
      }
    }
  }
  attr {
    key: "container"
    value {
      s: ""
    }
  }
  attr {
    key: "dtype"
    value {
      type: DT_FLOAT
    }
  }
  attr {
    key: "shape"
    value {
      shape {
        dim {
          size: 1
        }
      }
    }
  }
  attr {
    key: "shared_name"
    value {
      s: ""
    }
  }
}
node {
  name: "deepq/deepq/q_func/state_value/fully_connected_1/biases/Adam/Assign"
  op: "Assign"
  input: "deepq/deepq/q_func/state_value/fully_connected_1/biases/Adam"
  input: "deepq/deepq/q_func/state_value/fully_connected_1/biases/Adam/Initializer/zeros"
  attr {
    key: "T"
    value {
      type: DT_FLOAT
    }
  }
  attr {
    key: "_class"
    value {
      list {
        s: "loc:@deepq/q_func/state_value/fully_connected_1/biases"
      }
    }
  }
  attr {
    key: "use_locking"
    value {
      b: true
    }
  }
  attr {
    key: "validate_shape"
    value {
      b: true
    }
  }
}
node {
  name: "deepq/deepq/q_func/state_value/fully_connected_1/biases/Adam/read"
  op: "Identity"
  input: "deepq/deepq/q_func/state_value/fully_connected_1/biases/Adam"
  attr {
    key: "T"
    value {
      type: DT_FLOAT
    }
  }
  attr {
    key: "_class"
    value {
      list {
        s: "loc:@deepq/q_func/state_value/fully_connected_1/biases"
      }
    }
  }
}
node {
  name: "deepq/deepq/q_func/state_value/fully_connected_1/biases/Adam_1/Initializer/zeros"
  op: "Const"
  attr {
    key: "_class"
    value {
      list {
        s: "loc:@deepq/q_func/state_value/fully_connected_1/biases"
      }
    }
  }
  attr {
    key: "dtype"
    value {
      type: DT_FLOAT
    }
  }
  attr {
    key: "value"
    value {
      tensor {
        dtype: DT_FLOAT
        tensor_shape {
          dim {
            size: 1
          }
        }
        float_val: 0.0
      }
    }
  }
}
node {
  name: "deepq/deepq/q_func/state_value/fully_connected_1/biases/Adam_1"
  op: "VariableV2"
  attr {
    key: "_class"
    value {
      list {
        s: "loc:@deepq/q_func/state_value/fully_connected_1/biases"
      }
    }
  }
  attr {
    key: "container"
    value {
      s: ""
    }
  }
  attr {
    key: "dtype"
    value {
      type: DT_FLOAT
    }
  }
  attr {
    key: "shape"
    value {
      shape {
        dim {
          size: 1
        }
      }
    }
  }
  attr {
    key: "shared_name"
    value {
      s: ""
    }
  }
}
node {
  name: "deepq/deepq/q_func/state_value/fully_connected_1/biases/Adam_1/Assign"
  op: "Assign"
  input: "deepq/deepq/q_func/state_value/fully_connected_1/biases/Adam_1"
  input: "deepq/deepq/q_func/state_value/fully_connected_1/biases/Adam_1/Initializer/zeros"
  attr {
    key: "T"
    value {
      type: DT_FLOAT
    }
  }
  attr {
    key: "_class"
    value {
      list {
        s: "loc:@deepq/q_func/state_value/fully_connected_1/biases"
      }
    }
  }
  attr {
    key: "use_locking"
    value {
      b: true
    }
  }
  attr {
    key: "validate_shape"
    value {
      b: true
    }
  }
}
node {
  name: "deepq/deepq/q_func/state_value/fully_connected_1/biases/Adam_1/read"
  op: "Identity"
  input: "deepq/deepq/q_func/state_value/fully_connected_1/biases/Adam_1"
  attr {
    key: "T"
    value {
      type: DT_FLOAT
    }
  }
  attr {
    key: "_class"
    value {
      list {
        s: "loc:@deepq/q_func/state_value/fully_connected_1/biases"
      }
    }
  }
}
node {
  name: "deepq_1/Adam/learning_rate"
  op: "Const"
  attr {
    key: "dtype"
    value {
      type: DT_FLOAT
    }
  }
  attr {
    key: "value"
    value {
      tensor {
        dtype: DT_FLOAT
        tensor_shape {
        }
        float_val: 9.999999747378752e-05
      }
    }
  }
}
node {
  name: "deepq_1/Adam/beta1"
  op: "Const"
  attr {
    key: "dtype"
    value {
      type: DT_FLOAT
    }
  }
  attr {
    key: "value"
    value {
      tensor {
        dtype: DT_FLOAT
        tensor_shape {
        }
        float_val: 0.8999999761581421
      }
    }
  }
}
node {
  name: "deepq_1/Adam/beta2"
  op: "Const"
  attr {
    key: "dtype"
    value {
      type: DT_FLOAT
    }
  }
  attr {
    key: "value"
    value {
      tensor {
        dtype: DT_FLOAT
        tensor_shape {
        }
        float_val: 0.9990000128746033
      }
    }
  }
}
node {
  name: "deepq_1/Adam/epsilon"
  op: "Const"
  attr {
    key: "dtype"
    value {
      type: DT_FLOAT
    }
  }
  attr {
    key: "value"
    value {
      tensor {
        dtype: DT_FLOAT
        tensor_shape {
        }
        float_val: 9.99999993922529e-09
      }
    }
  }
}
node {
  name: "deepq_1/Adam/update_deepq/q_func/convnet/Conv/weights/ApplyAdam"
  op: "ApplyAdam"
  input: "deepq/q_func/convnet/Conv/weights"
  input: "deepq/deepq/q_func/convnet/Conv/weights/Adam"
  input: "deepq/deepq/q_func/convnet/Conv/weights/Adam_1"
  input: "deepq_1/beta1_power/read"
  input: "deepq_1/beta2_power/read"
  input: "deepq_1/Adam/learning_rate"
  input: "deepq_1/Adam/beta1"
  input: "deepq_1/Adam/beta2"
  input: "deepq_1/Adam/epsilon"
  input: "deepq_1/clip_by_norm"
  attr {
    key: "T"
    value {
      type: DT_FLOAT
    }
  }
  attr {
    key: "_class"
    value {
      list {
        s: "loc:@deepq/q_func/convnet/Conv/weights"
      }
    }
  }
  attr {
    key: "use_locking"
    value {
      b: false
    }
  }
  attr {
    key: "use_nesterov"
    value {
      b: false
    }
  }
}
node {
  name: "deepq_1/Adam/update_deepq/q_func/convnet/Conv/biases/ApplyAdam"
  op: "ApplyAdam"
  input: "deepq/q_func/convnet/Conv/biases"
  input: "deepq/deepq/q_func/convnet/Conv/biases/Adam"
  input: "deepq/deepq/q_func/convnet/Conv/biases/Adam_1"
  input: "deepq_1/beta1_power/read"
  input: "deepq_1/beta2_power/read"
  input: "deepq_1/Adam/learning_rate"
  input: "deepq_1/Adam/beta1"
  input: "deepq_1/Adam/beta2"
  input: "deepq_1/Adam/epsilon"
  input: "deepq_1/clip_by_norm_1"
  attr {
    key: "T"
    value {
      type: DT_FLOAT
    }
  }
  attr {
    key: "_class"
    value {
      list {
        s: "loc:@deepq/q_func/convnet/Conv/biases"
      }
    }
  }
  attr {
    key: "use_locking"
    value {
      b: false
    }
  }
  attr {
    key: "use_nesterov"
    value {
      b: false
    }
  }
}
node {
  name: "deepq_1/Adam/update_deepq/q_func/convnet/Conv_1/weights/ApplyAdam"
  op: "ApplyAdam"
  input: "deepq/q_func/convnet/Conv_1/weights"
  input: "deepq/deepq/q_func/convnet/Conv_1/weights/Adam"
  input: "deepq/deepq/q_func/convnet/Conv_1/weights/Adam_1"
  input: "deepq_1/beta1_power/read"
  input: "deepq_1/beta2_power/read"
  input: "deepq_1/Adam/learning_rate"
  input: "deepq_1/Adam/beta1"
  input: "deepq_1/Adam/beta2"
  input: "deepq_1/Adam/epsilon"
  input: "deepq_1/clip_by_norm_2"
  attr {
    key: "T"
    value {
      type: DT_FLOAT
    }
  }
  attr {
    key: "_class"
    value {
      list {
        s: "loc:@deepq/q_func/convnet/Conv_1/weights"
      }
    }
  }
  attr {
    key: "use_locking"
    value {
      b: false
    }
  }
  attr {
    key: "use_nesterov"
    value {
      b: false
    }
  }
}
node {
  name: "deepq_1/Adam/update_deepq/q_func/convnet/Conv_1/biases/ApplyAdam"
  op: "ApplyAdam"
  input: "deepq/q_func/convnet/Conv_1/biases"
  input: "deepq/deepq/q_func/convnet/Conv_1/biases/Adam"
  input: "deepq/deepq/q_func/convnet/Conv_1/biases/Adam_1"
  input: "deepq_1/beta1_power/read"
  input: "deepq_1/beta2_power/read"
  input: "deepq_1/Adam/learning_rate"
  input: "deepq_1/Adam/beta1"
  input: "deepq_1/Adam/beta2"
  input: "deepq_1/Adam/epsilon"
  input: "deepq_1/clip_by_norm_3"
  attr {
    key: "T"
    value {
      type: DT_FLOAT
    }
  }
  attr {
    key: "_class"
    value {
      list {
        s: "loc:@deepq/q_func/convnet/Conv_1/biases"
      }
    }
  }
  attr {
    key: "use_locking"
    value {
      b: false
    }
  }
  attr {
    key: "use_nesterov"
    value {
      b: false
    }
  }
}
node {
  name: "deepq_1/Adam/update_deepq/q_func/convnet/Conv_2/weights/ApplyAdam"
  op: "ApplyAdam"
  input: "deepq/q_func/convnet/Conv_2/weights"
  input: "deepq/deepq/q_func/convnet/Conv_2/weights/Adam"
  input: "deepq/deepq/q_func/convnet/Conv_2/weights/Adam_1"
  input: "deepq_1/beta1_power/read"
  input: "deepq_1/beta2_power/read"
  input: "deepq_1/Adam/learning_rate"
  input: "deepq_1/Adam/beta1"
  input: "deepq_1/Adam/beta2"
  input: "deepq_1/Adam/epsilon"
  input: "deepq_1/clip_by_norm_4"
  attr {
    key: "T"
    value {
      type: DT_FLOAT
    }
  }
  attr {
    key: "_class"
    value {
      list {
        s: "loc:@deepq/q_func/convnet/Conv_2/weights"
      }
    }
  }
  attr {
    key: "use_locking"
    value {
      b: false
    }
  }
  attr {
    key: "use_nesterov"
    value {
      b: false
    }
  }
}
node {
  name: "deepq_1/Adam/update_deepq/q_func/convnet/Conv_2/biases/ApplyAdam"
  op: "ApplyAdam"
  input: "deepq/q_func/convnet/Conv_2/biases"
  input: "deepq/deepq/q_func/convnet/Conv_2/biases/Adam"
  input: "deepq/deepq/q_func/convnet/Conv_2/biases/Adam_1"
  input: "deepq_1/beta1_power/read"
  input: "deepq_1/beta2_power/read"
  input: "deepq_1/Adam/learning_rate"
  input: "deepq_1/Adam/beta1"
  input: "deepq_1/Adam/beta2"
  input: "deepq_1/Adam/epsilon"
  input: "deepq_1/clip_by_norm_5"
  attr {
    key: "T"
    value {
      type: DT_FLOAT
    }
  }
  attr {
    key: "_class"
    value {
      list {
        s: "loc:@deepq/q_func/convnet/Conv_2/biases"
      }
    }
  }
  attr {
    key: "use_locking"
    value {
      b: false
    }
  }
  attr {
    key: "use_nesterov"
    value {
      b: false
    }
  }
}
node {
  name: "deepq_1/Adam/update_deepq/q_func/action_value/fully_connected/weights/ApplyAdam"
  op: "ApplyAdam"
  input: "deepq/q_func/action_value/fully_connected/weights"
  input: "deepq/deepq/q_func/action_value/fully_connected/weights/Adam"
  input: "deepq/deepq/q_func/action_value/fully_connected/weights/Adam_1"
  input: "deepq_1/beta1_power/read"
  input: "deepq_1/beta2_power/read"
  input: "deepq_1/Adam/learning_rate"
  input: "deepq_1/Adam/beta1"
  input: "deepq_1/Adam/beta2"
  input: "deepq_1/Adam/epsilon"
  input: "deepq_1/clip_by_norm_6"
  attr {
    key: "T"
    value {
      type: DT_FLOAT
    }
  }
  attr {
    key: "_class"
    value {
      list {
        s: "loc:@deepq/q_func/action_value/fully_connected/weights"
      }
    }
  }
  attr {
    key: "use_locking"
    value {
      b: false
    }
  }
  attr {
    key: "use_nesterov"
    value {
      b: false
    }
  }
}
node {
  name: "deepq_1/Adam/update_deepq/q_func/action_value/fully_connected/biases/ApplyAdam"
  op: "ApplyAdam"
  input: "deepq/q_func/action_value/fully_connected/biases"
  input: "deepq/deepq/q_func/action_value/fully_connected/biases/Adam"
  input: "deepq/deepq/q_func/action_value/fully_connected/biases/Adam_1"
  input: "deepq_1/beta1_power/read"
  input: "deepq_1/beta2_power/read"
  input: "deepq_1/Adam/learning_rate"
  input: "deepq_1/Adam/beta1"
  input: "deepq_1/Adam/beta2"
  input: "deepq_1/Adam/epsilon"
  input: "deepq_1/clip_by_norm_7"
  attr {
    key: "T"
    value {
      type: DT_FLOAT
    }
  }
  attr {
    key: "_class"
    value {
      list {
        s: "loc:@deepq/q_func/action_value/fully_connected/biases"
      }
    }
  }
  attr {
    key: "use_locking"
    value {
      b: false
    }
  }
  attr {
    key: "use_nesterov"
    value {
      b: false
    }
  }
}
node {
  name: "deepq_1/Adam/update_deepq/q_func/action_value/fully_connected_1/weights/ApplyAdam"
  op: "ApplyAdam"
  input: "deepq/q_func/action_value/fully_connected_1/weights"
  input: "deepq/deepq/q_func/action_value/fully_connected_1/weights/Adam"
  input: "deepq/deepq/q_func/action_value/fully_connected_1/weights/Adam_1"
  input: "deepq_1/beta1_power/read"
  input: "deepq_1/beta2_power/read"
  input: "deepq_1/Adam/learning_rate"
  input: "deepq_1/Adam/beta1"
  input: "deepq_1/Adam/beta2"
  input: "deepq_1/Adam/epsilon"
  input: "deepq_1/clip_by_norm_8"
  attr {
    key: "T"
    value {
      type: DT_FLOAT
    }
  }
  attr {
    key: "_class"
    value {
      list {
        s: "loc:@deepq/q_func/action_value/fully_connected_1/weights"
      }
    }
  }
  attr {
    key: "use_locking"
    value {
      b: false
    }
  }
  attr {
    key: "use_nesterov"
    value {
      b: false
    }
  }
}
node {
  name: "deepq_1/Adam/update_deepq/q_func/action_value/fully_connected_1/biases/ApplyAdam"
  op: "ApplyAdam"
  input: "deepq/q_func/action_value/fully_connected_1/biases"
  input: "deepq/deepq/q_func/action_value/fully_connected_1/biases/Adam"
  input: "deepq/deepq/q_func/action_value/fully_connected_1/biases/Adam_1"
  input: "deepq_1/beta1_power/read"
  input: "deepq_1/beta2_power/read"
  input: "deepq_1/Adam/learning_rate"
  input: "deepq_1/Adam/beta1"
  input: "deepq_1/Adam/beta2"
  input: "deepq_1/Adam/epsilon"
  input: "deepq_1/clip_by_norm_9"
  attr {
    key: "T"
    value {
      type: DT_FLOAT
    }
  }
  attr {
    key: "_class"
    value {
      list {
        s: "loc:@deepq/q_func/action_value/fully_connected_1/biases"
      }
    }
  }
  attr {
    key: "use_locking"
    value {
      b: false
    }
  }
  attr {
    key: "use_nesterov"
    value {
      b: false
    }
  }
}
node {
  name: "deepq_1/Adam/update_deepq/q_func/state_value/fully_connected/weights/ApplyAdam"
  op: "ApplyAdam"
  input: "deepq/q_func/state_value/fully_connected/weights"
  input: "deepq/deepq/q_func/state_value/fully_connected/weights/Adam"
  input: "deepq/deepq/q_func/state_value/fully_connected/weights/Adam_1"
  input: "deepq_1/beta1_power/read"
  input: "deepq_1/beta2_power/read"
  input: "deepq_1/Adam/learning_rate"
  input: "deepq_1/Adam/beta1"
  input: "deepq_1/Adam/beta2"
  input: "deepq_1/Adam/epsilon"
  input: "deepq_1/clip_by_norm_10"
  attr {
    key: "T"
    value {
      type: DT_FLOAT
    }
  }
  attr {
    key: "_class"
    value {
      list {
        s: "loc:@deepq/q_func/state_value/fully_connected/weights"
      }
    }
  }
  attr {
    key: "use_locking"
    value {
      b: false
    }
  }
  attr {
    key: "use_nesterov"
    value {
      b: false
    }
  }
}
node {
  name: "deepq_1/Adam/update_deepq/q_func/state_value/fully_connected/biases/ApplyAdam"
  op: "ApplyAdam"
  input: "deepq/q_func/state_value/fully_connected/biases"
  input: "deepq/deepq/q_func/state_value/fully_connected/biases/Adam"
  input: "deepq/deepq/q_func/state_value/fully_connected/biases/Adam_1"
  input: "deepq_1/beta1_power/read"
  input: "deepq_1/beta2_power/read"
  input: "deepq_1/Adam/learning_rate"
  input: "deepq_1/Adam/beta1"
  input: "deepq_1/Adam/beta2"
  input: "deepq_1/Adam/epsilon"
  input: "deepq_1/clip_by_norm_11"
  attr {
    key: "T"
    value {
      type: DT_FLOAT
    }
  }
  attr {
    key: "_class"
    value {
      list {
        s: "loc:@deepq/q_func/state_value/fully_connected/biases"
      }
    }
  }
  attr {
    key: "use_locking"
    value {
      b: false
    }
  }
  attr {
    key: "use_nesterov"
    value {
      b: false
    }
  }
}
node {
  name: "deepq_1/Adam/update_deepq/q_func/state_value/fully_connected_1/weights/ApplyAdam"
  op: "ApplyAdam"
  input: "deepq/q_func/state_value/fully_connected_1/weights"
  input: "deepq/deepq/q_func/state_value/fully_connected_1/weights/Adam"
  input: "deepq/deepq/q_func/state_value/fully_connected_1/weights/Adam_1"
  input: "deepq_1/beta1_power/read"
  input: "deepq_1/beta2_power/read"
  input: "deepq_1/Adam/learning_rate"
  input: "deepq_1/Adam/beta1"
  input: "deepq_1/Adam/beta2"
  input: "deepq_1/Adam/epsilon"
  input: "deepq_1/clip_by_norm_12"
  attr {
    key: "T"
    value {
      type: DT_FLOAT
    }
  }
  attr {
    key: "_class"
    value {
      list {
        s: "loc:@deepq/q_func/state_value/fully_connected_1/weights"
      }
    }
  }
  attr {
    key: "use_locking"
    value {
      b: false
    }
  }
  attr {
    key: "use_nesterov"
    value {
      b: false
    }
  }
}
node {
  name: "deepq_1/Adam/update_deepq/q_func/state_value/fully_connected_1/biases/ApplyAdam"
  op: "ApplyAdam"
  input: "deepq/q_func/state_value/fully_connected_1/biases"
  input: "deepq/deepq/q_func/state_value/fully_connected_1/biases/Adam"
  input: "deepq/deepq/q_func/state_value/fully_connected_1/biases/Adam_1"
  input: "deepq_1/beta1_power/read"
  input: "deepq_1/beta2_power/read"
  input: "deepq_1/Adam/learning_rate"
  input: "deepq_1/Adam/beta1"
  input: "deepq_1/Adam/beta2"
  input: "deepq_1/Adam/epsilon"
  input: "deepq_1/clip_by_norm_13"
  attr {
    key: "T"
    value {
      type: DT_FLOAT
    }
  }
  attr {
    key: "_class"
    value {
      list {
        s: "loc:@deepq/q_func/state_value/fully_connected_1/biases"
      }
    }
  }
  attr {
    key: "use_locking"
    value {
      b: false
    }
  }
  attr {
    key: "use_nesterov"
    value {
      b: false
    }
  }
}
node {
  name: "deepq_1/Adam/mul"
  op: "Mul"
  input: "deepq_1/beta1_power/read"
  input: "deepq_1/Adam/beta1"
  input: "^deepq_1/Adam/update_deepq/q_func/action_value/fully_connected/biases/ApplyAdam"
  input: "^deepq_1/Adam/update_deepq/q_func/action_value/fully_connected/weights/ApplyAdam"
  input: "^deepq_1/Adam/update_deepq/q_func/action_value/fully_connected_1/biases/ApplyAdam"
  input: "^deepq_1/Adam/update_deepq/q_func/action_value/fully_connected_1/weights/ApplyAdam"
  input: "^deepq_1/Adam/update_deepq/q_func/convnet/Conv/biases/ApplyAdam"
  input: "^deepq_1/Adam/update_deepq/q_func/convnet/Conv/weights/ApplyAdam"
  input: "^deepq_1/Adam/update_deepq/q_func/convnet/Conv_1/biases/ApplyAdam"
  input: "^deepq_1/Adam/update_deepq/q_func/convnet/Conv_1/weights/ApplyAdam"
  input: "^deepq_1/Adam/update_deepq/q_func/convnet/Conv_2/biases/ApplyAdam"
  input: "^deepq_1/Adam/update_deepq/q_func/convnet/Conv_2/weights/ApplyAdam"
  input: "^deepq_1/Adam/update_deepq/q_func/state_value/fully_connected/biases/ApplyAdam"
  input: "^deepq_1/Adam/update_deepq/q_func/state_value/fully_connected/weights/ApplyAdam"
  input: "^deepq_1/Adam/update_deepq/q_func/state_value/fully_connected_1/biases/ApplyAdam"
  input: "^deepq_1/Adam/update_deepq/q_func/state_value/fully_connected_1/weights/ApplyAdam"
  attr {
    key: "T"
    value {
      type: DT_FLOAT
    }
  }
  attr {
    key: "_class"
    value {
      list {
        s: "loc:@deepq/q_func/action_value/fully_connected/biases"
      }
    }
  }
}
node {
  name: "deepq_1/Adam/Assign"
  op: "Assign"
  input: "deepq_1/beta1_power"
  input: "deepq_1/Adam/mul"
  attr {
    key: "T"
    value {
      type: DT_FLOAT
    }
  }
  attr {
    key: "_class"
    value {
      list {
        s: "loc:@deepq/q_func/action_value/fully_connected/biases"
      }
    }
  }
  attr {
    key: "use_locking"
    value {
      b: false
    }
  }
  attr {
    key: "validate_shape"
    value {
      b: true
    }
  }
}
node {
  name: "deepq_1/Adam/mul_1"
  op: "Mul"
  input: "deepq_1/beta2_power/read"
  input: "deepq_1/Adam/beta2"
  input: "^deepq_1/Adam/update_deepq/q_func/action_value/fully_connected/biases/ApplyAdam"
  input: "^deepq_1/Adam/update_deepq/q_func/action_value/fully_connected/weights/ApplyAdam"
  input: "^deepq_1/Adam/update_deepq/q_func/action_value/fully_connected_1/biases/ApplyAdam"
  input: "^deepq_1/Adam/update_deepq/q_func/action_value/fully_connected_1/weights/ApplyAdam"
  input: "^deepq_1/Adam/update_deepq/q_func/convnet/Conv/biases/ApplyAdam"
  input: "^deepq_1/Adam/update_deepq/q_func/convnet/Conv/weights/ApplyAdam"
  input: "^deepq_1/Adam/update_deepq/q_func/convnet/Conv_1/biases/ApplyAdam"
  input: "^deepq_1/Adam/update_deepq/q_func/convnet/Conv_1/weights/ApplyAdam"
  input: "^deepq_1/Adam/update_deepq/q_func/convnet/Conv_2/biases/ApplyAdam"
  input: "^deepq_1/Adam/update_deepq/q_func/convnet/Conv_2/weights/ApplyAdam"
  input: "^deepq_1/Adam/update_deepq/q_func/state_value/fully_connected/biases/ApplyAdam"
  input: "^deepq_1/Adam/update_deepq/q_func/state_value/fully_connected/weights/ApplyAdam"
  input: "^deepq_1/Adam/update_deepq/q_func/state_value/fully_connected_1/biases/ApplyAdam"
  input: "^deepq_1/Adam/update_deepq/q_func/state_value/fully_connected_1/weights/ApplyAdam"
  attr {
    key: "T"
    value {
      type: DT_FLOAT
    }
  }
  attr {
    key: "_class"
    value {
      list {
        s: "loc:@deepq/q_func/action_value/fully_connected/biases"
      }
    }
  }
}
node {
  name: "deepq_1/Adam/Assign_1"
  op: "Assign"
  input: "deepq_1/beta2_power"
  input: "deepq_1/Adam/mul_1"
  attr {
    key: "T"
    value {
      type: DT_FLOAT
    }
  }
  attr {
    key: "_class"
    value {
      list {
        s: "loc:@deepq/q_func/action_value/fully_connected/biases"
      }
    }
  }
  attr {
    key: "use_locking"
    value {
      b: false
    }
  }
  attr {
    key: "validate_shape"
    value {
      b: true
    }
  }
}
node {
  name: "deepq_1/Adam"
  op: "NoOp"
  input: "^deepq_1/Adam/Assign"
  input: "^deepq_1/Adam/Assign_1"
  input: "^deepq_1/Adam/update_deepq/q_func/action_value/fully_connected/biases/ApplyAdam"
  input: "^deepq_1/Adam/update_deepq/q_func/action_value/fully_connected/weights/ApplyAdam"
  input: "^deepq_1/Adam/update_deepq/q_func/action_value/fully_connected_1/biases/ApplyAdam"
  input: "^deepq_1/Adam/update_deepq/q_func/action_value/fully_connected_1/weights/ApplyAdam"
  input: "^deepq_1/Adam/update_deepq/q_func/convnet/Conv/biases/ApplyAdam"
  input: "^deepq_1/Adam/update_deepq/q_func/convnet/Conv/weights/ApplyAdam"
  input: "^deepq_1/Adam/update_deepq/q_func/convnet/Conv_1/biases/ApplyAdam"
  input: "^deepq_1/Adam/update_deepq/q_func/convnet/Conv_1/weights/ApplyAdam"
  input: "^deepq_1/Adam/update_deepq/q_func/convnet/Conv_2/biases/ApplyAdam"
  input: "^deepq_1/Adam/update_deepq/q_func/convnet/Conv_2/weights/ApplyAdam"
  input: "^deepq_1/Adam/update_deepq/q_func/state_value/fully_connected/biases/ApplyAdam"
  input: "^deepq_1/Adam/update_deepq/q_func/state_value/fully_connected/weights/ApplyAdam"
  input: "^deepq_1/Adam/update_deepq/q_func/state_value/fully_connected_1/biases/ApplyAdam"
  input: "^deepq_1/Adam/update_deepq/q_func/state_value/fully_connected_1/weights/ApplyAdam"
}
node {
  name: "deepq_1/Assign"
  op: "Assign"
  input: "deepq/target_q_func/action_value/fully_connected/biases"
  input: "deepq/q_func/action_value/fully_connected/biases/read"
  attr {
    key: "T"
    value {
      type: DT_FLOAT
    }
  }
  attr {
    key: "_class"
    value {
      list {
        s: "loc:@deepq/target_q_func/action_value/fully_connected/biases"
      }
    }
  }
  attr {
    key: "use_locking"
    value {
      b: false
    }
  }
  attr {
    key: "validate_shape"
    value {
      b: true
    }
  }
}
node {
  name: "deepq_1/Assign_1"
  op: "Assign"
  input: "deepq/target_q_func/action_value/fully_connected/weights"
  input: "deepq/q_func/action_value/fully_connected/weights/read"
  attr {
    key: "T"
    value {
      type: DT_FLOAT
    }
  }
  attr {
    key: "_class"
    value {
      list {
        s: "loc:@deepq/target_q_func/action_value/fully_connected/weights"
      }
    }
  }
  attr {
    key: "use_locking"
    value {
      b: false
    }
  }
  attr {
    key: "validate_shape"
    value {
      b: true
    }
  }
}
node {
  name: "deepq_1/Assign_2"
  op: "Assign"
  input: "deepq/target_q_func/action_value/fully_connected_1/biases"
  input: "deepq/q_func/action_value/fully_connected_1/biases/read"
  attr {
    key: "T"
    value {
      type: DT_FLOAT
    }
  }
  attr {
    key: "_class"
    value {
      list {
        s: "loc:@deepq/target_q_func/action_value/fully_connected_1/biases"
      }
    }
  }
  attr {
    key: "use_locking"
    value {
      b: false
    }
  }
  attr {
    key: "validate_shape"
    value {
      b: true
    }
  }
}
node {
  name: "deepq_1/Assign_3"
  op: "Assign"
  input: "deepq/target_q_func/action_value/fully_connected_1/weights"
  input: "deepq/q_func/action_value/fully_connected_1/weights/read"
  attr {
    key: "T"
    value {
      type: DT_FLOAT
    }
  }
  attr {
    key: "_class"
    value {
      list {
        s: "loc:@deepq/target_q_func/action_value/fully_connected_1/weights"
      }
    }
  }
  attr {
    key: "use_locking"
    value {
      b: false
    }
  }
  attr {
    key: "validate_shape"
    value {
      b: true
    }
  }
}
node {
  name: "deepq_1/Assign_4"
  op: "Assign"
  input: "deepq/target_q_func/convnet/Conv/biases"
  input: "deepq/q_func/convnet/Conv/biases/read"
  attr {
    key: "T"
    value {
      type: DT_FLOAT
    }
  }
  attr {
    key: "_class"
    value {
      list {
        s: "loc:@deepq/target_q_func/convnet/Conv/biases"
      }
    }
  }
  attr {
    key: "use_locking"
    value {
      b: false
    }
  }
  attr {
    key: "validate_shape"
    value {
      b: true
    }
  }
}
node {
  name: "deepq_1/Assign_5"
  op: "Assign"
  input: "deepq/target_q_func/convnet/Conv/weights"
  input: "deepq/q_func/convnet/Conv/weights/read"
  attr {
    key: "T"
    value {
      type: DT_FLOAT
    }
  }
  attr {
    key: "_class"
    value {
      list {
        s: "loc:@deepq/target_q_func/convnet/Conv/weights"
      }
    }
  }
  attr {
    key: "use_locking"
    value {
      b: false
    }
  }
  attr {
    key: "validate_shape"
    value {
      b: true
    }
  }
}
node {
  name: "deepq_1/Assign_6"
  op: "Assign"
  input: "deepq/target_q_func/convnet/Conv_1/biases"
  input: "deepq/q_func/convnet/Conv_1/biases/read"
  attr {
    key: "T"
    value {
      type: DT_FLOAT
    }
  }
  attr {
    key: "_class"
    value {
      list {
        s: "loc:@deepq/target_q_func/convnet/Conv_1/biases"
      }
    }
  }
  attr {
    key: "use_locking"
    value {
      b: false
    }
  }
  attr {
    key: "validate_shape"
    value {
      b: true
    }
  }
}
node {
  name: "deepq_1/Assign_7"
  op: "Assign"
  input: "deepq/target_q_func/convnet/Conv_1/weights"
  input: "deepq/q_func/convnet/Conv_1/weights/read"
  attr {
    key: "T"
    value {
      type: DT_FLOAT
    }
  }
  attr {
    key: "_class"
    value {
      list {
        s: "loc:@deepq/target_q_func/convnet/Conv_1/weights"
      }
    }
  }
  attr {
    key: "use_locking"
    value {
      b: false
    }
  }
  attr {
    key: "validate_shape"
    value {
      b: true
    }
  }
}
node {
  name: "deepq_1/Assign_8"
  op: "Assign"
  input: "deepq/target_q_func/convnet/Conv_2/biases"
  input: "deepq/q_func/convnet/Conv_2/biases/read"
  attr {
    key: "T"
    value {
      type: DT_FLOAT
    }
  }
  attr {
    key: "_class"
    value {
      list {
        s: "loc:@deepq/target_q_func/convnet/Conv_2/biases"
      }
    }
  }
  attr {
    key: "use_locking"
    value {
      b: false
    }
  }
  attr {
    key: "validate_shape"
    value {
      b: true
    }
  }
}
node {
  name: "deepq_1/Assign_9"
  op: "Assign"
  input: "deepq/target_q_func/convnet/Conv_2/weights"
  input: "deepq/q_func/convnet/Conv_2/weights/read"
  attr {
    key: "T"
    value {
      type: DT_FLOAT
    }
  }
  attr {
    key: "_class"
    value {
      list {
        s: "loc:@deepq/target_q_func/convnet/Conv_2/weights"
      }
    }
  }
  attr {
    key: "use_locking"
    value {
      b: false
    }
  }
  attr {
    key: "validate_shape"
    value {
      b: true
    }
  }
}
node {
  name: "deepq_1/Assign_10"
  op: "Assign"
  input: "deepq/target_q_func/state_value/fully_connected/biases"
  input: "deepq/q_func/state_value/fully_connected/biases/read"
  attr {
    key: "T"
    value {
      type: DT_FLOAT
    }
  }
  attr {
    key: "_class"
    value {
      list {
        s: "loc:@deepq/target_q_func/state_value/fully_connected/biases"
      }
    }
  }
  attr {
    key: "use_locking"
    value {
      b: false
    }
  }
  attr {
    key: "validate_shape"
    value {
      b: true
    }
  }
}
node {
  name: "deepq_1/Assign_11"
  op: "Assign"
  input: "deepq/target_q_func/state_value/fully_connected/weights"
  input: "deepq/q_func/state_value/fully_connected/weights/read"
  attr {
    key: "T"
    value {
      type: DT_FLOAT
    }
  }
  attr {
    key: "_class"
    value {
      list {
        s: "loc:@deepq/target_q_func/state_value/fully_connected/weights"
      }
    }
  }
  attr {
    key: "use_locking"
    value {
      b: false
    }
  }
  attr {
    key: "validate_shape"
    value {
      b: true
    }
  }
}
node {
  name: "deepq_1/Assign_12"
  op: "Assign"
  input: "deepq/target_q_func/state_value/fully_connected_1/biases"
  input: "deepq/q_func/state_value/fully_connected_1/biases/read"
  attr {
    key: "T"
    value {
      type: DT_FLOAT
    }
  }
  attr {
    key: "_class"
    value {
      list {
        s: "loc:@deepq/target_q_func/state_value/fully_connected_1/biases"
      }
    }
  }
  attr {
    key: "use_locking"
    value {
      b: false
    }
  }
  attr {
    key: "validate_shape"
    value {
      b: true
    }
  }
}
node {
  name: "deepq_1/Assign_13"
  op: "Assign"
  input: "deepq/target_q_func/state_value/fully_connected_1/weights"
  input: "deepq/q_func/state_value/fully_connected_1/weights/read"
  attr {
    key: "T"
    value {
      type: DT_FLOAT
    }
  }
  attr {
    key: "_class"
    value {
      list {
        s: "loc:@deepq/target_q_func/state_value/fully_connected_1/weights"
      }
    }
  }
  attr {
    key: "use_locking"
    value {
      b: false
    }
  }
  attr {
    key: "validate_shape"
    value {
      b: true
    }
  }
}
node {
  name: "deepq_1/group_deps"
  op: "NoOp"
  input: "^deepq_1/Assign"
  input: "^deepq_1/Assign_1"
  input: "^deepq_1/Assign_10"
  input: "^deepq_1/Assign_11"
  input: "^deepq_1/Assign_12"
  input: "^deepq_1/Assign_13"
  input: "^deepq_1/Assign_2"
  input: "^deepq_1/Assign_3"
  input: "^deepq_1/Assign_4"
  input: "^deepq_1/Assign_5"
  input: "^deepq_1/Assign_6"
  input: "^deepq_1/Assign_7"
  input: "^deepq_1/Assign_8"
  input: "^deepq_1/Assign_9"
}
node {
  name: "deepq_1/group_deps_1"
  op: "NoOp"
  input: "^deepq_1/Adam"
}
node {
  name: "deepq_1/group_deps_2"
  op: "NoOp"
  input: "^deepq_1/group_deps"
}
node {
  name: "deepq_1/group_deps_3"
  op: "NoOp"
}
node {
  name: "init"
  op: "NoOp"
  input: "^deepq/deepq/q_func/action_value/fully_connected/biases/Adam/Assign"
  input: "^deepq/deepq/q_func/action_value/fully_connected/biases/Adam_1/Assign"
  input: "^deepq/deepq/q_func/action_value/fully_connected/weights/Adam/Assign"
  input: "^deepq/deepq/q_func/action_value/fully_connected/weights/Adam_1/Assign"
  input: "^deepq/deepq/q_func/action_value/fully_connected_1/biases/Adam/Assign"
  input: "^deepq/deepq/q_func/action_value/fully_connected_1/biases/Adam_1/Assign"
  input: "^deepq/deepq/q_func/action_value/fully_connected_1/weights/Adam/Assign"
  input: "^deepq/deepq/q_func/action_value/fully_connected_1/weights/Adam_1/Assign"
  input: "^deepq/deepq/q_func/convnet/Conv/biases/Adam/Assign"
  input: "^deepq/deepq/q_func/convnet/Conv/biases/Adam_1/Assign"
  input: "^deepq/deepq/q_func/convnet/Conv/weights/Adam/Assign"
  input: "^deepq/deepq/q_func/convnet/Conv/weights/Adam_1/Assign"
  input: "^deepq/deepq/q_func/convnet/Conv_1/biases/Adam/Assign"
  input: "^deepq/deepq/q_func/convnet/Conv_1/biases/Adam_1/Assign"
  input: "^deepq/deepq/q_func/convnet/Conv_1/weights/Adam/Assign"
  input: "^deepq/deepq/q_func/convnet/Conv_1/weights/Adam_1/Assign"
  input: "^deepq/deepq/q_func/convnet/Conv_2/biases/Adam/Assign"
  input: "^deepq/deepq/q_func/convnet/Conv_2/biases/Adam_1/Assign"
  input: "^deepq/deepq/q_func/convnet/Conv_2/weights/Adam/Assign"
  input: "^deepq/deepq/q_func/convnet/Conv_2/weights/Adam_1/Assign"
  input: "^deepq/deepq/q_func/state_value/fully_connected/biases/Adam/Assign"
  input: "^deepq/deepq/q_func/state_value/fully_connected/biases/Adam_1/Assign"
  input: "^deepq/deepq/q_func/state_value/fully_connected/weights/Adam/Assign"
  input: "^deepq/deepq/q_func/state_value/fully_connected/weights/Adam_1/Assign"
  input: "^deepq/deepq/q_func/state_value/fully_connected_1/biases/Adam/Assign"
  input: "^deepq/deepq/q_func/state_value/fully_connected_1/biases/Adam_1/Assign"
  input: "^deepq/deepq/q_func/state_value/fully_connected_1/weights/Adam/Assign"
  input: "^deepq/deepq/q_func/state_value/fully_connected_1/weights/Adam_1/Assign"
  input: "^deepq/eps/Assign"
  input: "^deepq/q_func/action_value/fully_connected/biases/Assign"
  input: "^deepq/q_func/action_value/fully_connected/weights/Assign"
  input: "^deepq/q_func/action_value/fully_connected_1/biases/Assign"
  input: "^deepq/q_func/action_value/fully_connected_1/weights/Assign"
  input: "^deepq/q_func/convnet/Conv/biases/Assign"
  input: "^deepq/q_func/convnet/Conv/weights/Assign"
  input: "^deepq/q_func/convnet/Conv_1/biases/Assign"
  input: "^deepq/q_func/convnet/Conv_1/weights/Assign"
  input: "^deepq/q_func/convnet/Conv_2/biases/Assign"
  input: "^deepq/q_func/convnet/Conv_2/weights/Assign"
  input: "^deepq/q_func/state_value/fully_connected/biases/Assign"
  input: "^deepq/q_func/state_value/fully_connected/weights/Assign"
  input: "^deepq/q_func/state_value/fully_connected_1/biases/Assign"
  input: "^deepq/q_func/state_value/fully_connected_1/weights/Assign"
  input: "^deepq/target_q_func/action_value/fully_connected/biases/Assign"
  input: "^deepq/target_q_func/action_value/fully_connected/weights/Assign"
  input: "^deepq/target_q_func/action_value/fully_connected_1/biases/Assign"
  input: "^deepq/target_q_func/action_value/fully_connected_1/weights/Assign"
  input: "^deepq/target_q_func/convnet/Conv/biases/Assign"
  input: "^deepq/target_q_func/convnet/Conv/weights/Assign"
  input: "^deepq/target_q_func/convnet/Conv_1/biases/Assign"
  input: "^deepq/target_q_func/convnet/Conv_1/weights/Assign"
  input: "^deepq/target_q_func/convnet/Conv_2/biases/Assign"
  input: "^deepq/target_q_func/convnet/Conv_2/weights/Assign"
  input: "^deepq/target_q_func/state_value/fully_connected/biases/Assign"
  input: "^deepq/target_q_func/state_value/fully_connected/weights/Assign"
  input: "^deepq/target_q_func/state_value/fully_connected_1/biases/Assign"
  input: "^deepq/target_q_func/state_value/fully_connected_1/weights/Assign"
  input: "^deepq_1/beta1_power/Assign"
  input: "^deepq_1/beta2_power/Assign"
}
versions {
  producer: 27
}
